{"format": "layers-model", "generatedBy": "keras v2.1.4", "convertedBy": "TensorFlow.js Converter v4.17.0", "modelTopology": {"keras_version": "2.1.4", "backend": "tensorflow", "model_config": {"class_name": "Model", "config": {"name": "model_1", "layers": [{"name": "input0", "class_name": "InputLayer", "config": {"batch_input_shape": [null, 3, 256, 256], "dtype": "float32", "sparse": false, "name": "input0"}, "inbound_nodes": []}, {"name": "conv10.23005182903749222_pad", "class_name": "ZeroPadding2D", "config": {"name": "conv10.23005182903749222_pad", "trainable": true, "padding": [[3, 3], [3, 3]], "data_format": "channels_first"}, "inbound_nodes": [[["input0", 0, 0, {}]]]}, {"name": "conv10.23005182903749222", "class_name": "Conv2D", "config": {"name": "conv10.23005182903749222", "trainable": true, "filters": 64, "kernel_size": [7, 7], "strides": [2, 2], "padding": "valid", "data_format": "channels_first", "dilation_rate": [1, 1], "activation": "linear", "use_bias": true, "kernel_initializer": {"class_name": "Zeros", "config": {}}, "bias_initializer": {"class_name": "Zeros", "config": {}}, "kernel_regularizer": null, "bias_regularizer": null, "activity_regularizer": null, "kernel_constraint": null, "bias_constraint": null}, "inbound_nodes": [[["conv10.23005182903749222_pad", 0, 0, {}]]]}, {"name": "bn10.20053864458101422", "class_name": "BatchNormalization", "config": {"name": "bn10.20053864458101422", "trainable": true, "axis": 1, "momentum": 1.0, "epsilon": 1e-05, "center": true, "scale": true, "beta_initializer": {"class_name": "Zeros", "config": {}}, "gamma_initializer": {"class_name": "Ones", "config": {}}, "moving_mean_initializer": {"class_name": "Zeros", "config": {}}, "moving_variance_initializer": {"class_name": "Ones", "config": {}}, "beta_regularizer": null, "gamma_regularizer": null, "beta_constraint": null, "gamma_constraint": null}, "inbound_nodes": [[["conv10.23005182903749222", 0, 0, {}]]]}, {"name": "0.75502029942736", "class_name": "Activation", "config": {"name": "0.75502029942736", "trainable": true, "activation": "relu"}, "inbound_nodes": [[["bn10.20053864458101422", 0, 0, {}]]]}, {"name": "conv2.bn10.802369887380708", "class_name": "BatchNormalization", "config": {"name": "conv2.bn10.802369887380708", "trainable": true, "axis": 1, "momentum": 1.0, "epsilon": 1e-05, "center": true, "scale": true, "beta_initializer": {"class_name": "Zeros", "config": {}}, "gamma_initializer": {"class_name": "Ones", "config": {}}, "moving_mean_initializer": {"class_name": "Zeros", "config": {}}, "moving_variance_initializer": {"class_name": "Ones", "config": {}}, "beta_regularizer": null, "gamma_regularizer": null, "beta_constraint": null, "gamma_constraint": null}, "inbound_nodes": [[["0.75502029942736", 0, 0, {}]]]}, {"name": "conv20.08545214377651056", "class_name": "Activation", "config": {"name": "conv20.08545214377651056", "trainable": true, "activation": "relu"}, "inbound_nodes": [[["conv2.bn10.802369887380708", 0, 0, {}]]]}, {"name": "conv2.conv10.5361743003328232_pad", "class_name": "ZeroPadding2D", "config": {"name": "conv2.conv10.5361743003328232_pad", "trainable": true, "padding": [[1, 1], [1, 1]], "data_format": "channels_first"}, "inbound_nodes": [[["conv20.08545214377651056", 0, 0, {}]]]}, {"name": "conv2.conv10.5361743003328232", "class_name": "Conv2D", "config": {"name": "conv2.conv10.5361743003328232", "trainable": true, "filters": 64, "kernel_size": [3, 3], "strides": [1, 1], "padding": "valid", "data_format": "channels_first", "dilation_rate": [1, 1], "activation": "linear", "use_bias": false, "kernel_initializer": {"class_name": "Zeros", "config": {}}, "bias_initializer": {"class_name": "Zeros", "config": {}}, "kernel_regularizer": null, "bias_regularizer": null, "activity_regularizer": null, "kernel_constraint": null, "bias_constraint": null}, "inbound_nodes": [[["conv2.conv10.5361743003328232_pad", 0, 0, {}]]]}, {"name": "conv2.bn20.5283238106116896", "class_name": "BatchNormalization", "config": {"name": "conv2.bn20.5283238106116896", "trainable": true, "axis": 1, "momentum": 1.0, "epsilon": 1e-05, "center": true, "scale": true, "beta_initializer": {"class_name": "Zeros", "config": {}}, "gamma_initializer": {"class_name": "Ones", "config": {}}, "moving_mean_initializer": {"class_name": "Zeros", "config": {}}, "moving_variance_initializer": {"class_name": "Ones", "config": {}}, "beta_regularizer": null, "gamma_regularizer": null, "beta_constraint": null, "gamma_constraint": null}, "inbound_nodes": [[["conv2.conv10.5361743003328232", 0, 0, {}]]]}, {"name": "conv20.13037149183563423", "class_name": "Activation", "config": {"name": "conv20.13037149183563423", "trainable": true, "activation": "relu"}, "inbound_nodes": [[["conv2.bn20.5283238106116896", 0, 0, {}]]]}, {"name": "conv2.conv20.0038606141862017607_pad", "class_name": "ZeroPadding2D", "config": {"name": "conv2.conv20.0038606141862017607_pad", "trainable": true, "padding": [[1, 1], [1, 1]], "data_format": "channels_first"}, "inbound_nodes": [[["conv20.13037149183563423", 0, 0, {}]]]}, {"name": "conv2.conv20.0038606141862017607", "class_name": "Conv2D", "config": {"name": "conv2.conv20.0038606141862017607", "trainable": true, "filters": 32, "kernel_size": [3, 3], "strides": [1, 1], "padding": "valid", "data_format": "channels_first", "dilation_rate": [1, 1], "activation": "linear", "use_bias": false, "kernel_initializer": {"class_name": "Zeros", "config": {}}, "bias_initializer": {"class_name": "Zeros", "config": {}}, "kernel_regularizer": null, "bias_regularizer": null, "activity_regularizer": null, "kernel_constraint": null, "bias_constraint": null}, "inbound_nodes": [[["conv2.conv20.0038606141862017607_pad", 0, 0, {}]]]}, {"name": "conv2.bn30.004615294012257354", "class_name": "BatchNormalization", "config": {"name": "conv2.bn30.004615294012257354", "trainable": true, "axis": 1, "momentum": 1.0, "epsilon": 1e-05, "center": true, "scale": true, "beta_initializer": {"class_name": "Zeros", "config": {}}, "gamma_initializer": {"class_name": "Ones", "config": {}}, "moving_mean_initializer": {"class_name": "Zeros", "config": {}}, "moving_variance_initializer": {"class_name": "Ones", "config": {}}, "beta_regularizer": null, "gamma_regularizer": null, "beta_constraint": null, "gamma_constraint": null}, "inbound_nodes": [[["conv2.conv20.0038606141862017607", 0, 0, {}]]]}, {"name": "conv20.1537136810901244", "class_name": "Activation", "config": {"name": "conv20.1537136810901244", "trainable": true, "activation": "relu"}, "inbound_nodes": [[["conv2.bn30.004615294012257354", 0, 0, {}]]]}, {"name": "conv2.conv30.6380091732991631_pad", "class_name": "ZeroPadding2D", "config": {"name": "conv2.conv30.6380091732991631_pad", "trainable": true, "padding": [[1, 1], [1, 1]], "data_format": "channels_first"}, "inbound_nodes": [[["conv20.1537136810901244", 0, 0, {}]]]}, {"name": "conv2.downsample.00.5043636933866238", "class_name": "BatchNormalization", "config": {"name": "conv2.downsample.00.5043636933866238", "trainable": true, "axis": 1, "momentum": 1.0, "epsilon": 1e-05, "center": true, "scale": true, "beta_initializer": {"class_name": "Zeros", "config": {}}, "gamma_initializer": {"class_name": "Ones", "config": {}}, "moving_mean_initializer": {"class_name": "Zeros", "config": {}}, "moving_variance_initializer": {"class_name": "Ones", "config": {}}, "beta_regularizer": null, "gamma_regularizer": null, "beta_constraint": null, "gamma_constraint": null}, "inbound_nodes": [[["0.75502029942736", 0, 0, {}]]]}, {"name": "conv2.conv30.6380091732991631", "class_name": "Conv2D", "config": {"name": "conv2.conv30.6380091732991631", "trainable": true, "filters": 32, "kernel_size": [3, 3], "strides": [1, 1], "padding": "valid", "data_format": "channels_first", "dilation_rate": [1, 1], "activation": "linear", "use_bias": false, "kernel_initializer": {"class_name": "Zeros", "config": {}}, "bias_initializer": {"class_name": "Zeros", "config": {}}, "kernel_regularizer": null, "bias_regularizer": null, "activity_regularizer": null, "kernel_constraint": null, "bias_constraint": null}, "inbound_nodes": [[["conv2.conv30.6380091732991631_pad", 0, 0, {}]]]}, {"name": "conv2.downsample.10.7925277561385002", "class_name": "Activation", "config": {"name": "conv2.downsample.10.7925277561385002", "trainable": true, "activation": "relu"}, "inbound_nodes": [[["conv2.downsample.00.5043636933866238", 0, 0, {}]]]}, {"name": "conv20.6474896334830329", "class_name": "Concatenate", "config": {"name": "conv20.6474896334830329", "trainable": true, "axis": 1}, "inbound_nodes": [[["conv2.conv10.5361743003328232", 0, 0, {}], ["conv2.conv20.0038606141862017607", 0, 0, {}], ["conv2.conv30.6380091732991631", 0, 0, {}]]]}, {"name": "conv2.downsample.20.20795011400296404", "class_name": "Conv2D", "config": {"name": "conv2.downsample.20.20795011400296404", "trainable": true, "filters": 128, "kernel_size": [1, 1], "strides": [1, 1], "padding": "valid", "data_format": "channels_first", "dilation_rate": [1, 1], "activation": "linear", "use_bias": false, "kernel_initializer": {"class_name": "Zeros", "config": {}}, "bias_initializer": {"class_name": "Zeros", "config": {}}, "kernel_regularizer": null, "bias_regularizer": null, "activity_regularizer": null, "kernel_constraint": null, "bias_constraint": null}, "inbound_nodes": [[["conv2.downsample.10.7925277561385002", 0, 0, {}]]]}, {"name": "conv20.6787410444953944", "class_name": "Add", "config": {"name": "conv20.6787410444953944", "trainable": true}, "inbound_nodes": [[["conv20.6474896334830329", 0, 0, {}], ["conv2.downsample.20.20795011400296404", 0, 0, {}]]]}, {"name": "0.2893595539648154", "class_name": "ZeroPadding2D", "config": {"name": "0.2893595539648154", "trainable": true, "padding": [[0, 0], [0, 0]], "data_format": "channels_first"}, "inbound_nodes": [[["conv20.6787410444953944", 0, 0, {}]]]}, {"name": "0.3562700616991372_pad", "class_name": "ZeroPadding2D", "config": {"name": "0.3562700616991372_pad", "trainable": true, "padding": [[0, 0], [0, 0]], "data_format": "channels_first"}, "inbound_nodes": [[["0.2893595539648154", 0, 0, {}]]]}, {"name": "0.3562700616991372", "class_name": "AveragePooling2D", "config": {"name": "0.3562700616991372", "trainable": true, "pool_size": [2, 2], "padding": "valid", "strides": [2, 2], "data_format": "channels_first"}, "inbound_nodes": [[["0.3562700616991372_pad", 0, 0, {}]]]}, {"name": "conv3.bn10.9011600147464808", "class_name": "BatchNormalization", "config": {"name": "conv3.bn10.9011600147464808", "trainable": true, "axis": 1, "momentum": 1.0, "epsilon": 1e-05, "center": true, "scale": true, "beta_initializer": {"class_name": "Zeros", "config": {}}, "gamma_initializer": {"class_name": "Ones", "config": {}}, "moving_mean_initializer": {"class_name": "Zeros", "config": {}}, "moving_variance_initializer": {"class_name": "Ones", "config": {}}, "beta_regularizer": null, "gamma_regularizer": null, "beta_constraint": null, "gamma_constraint": null}, "inbound_nodes": [[["0.3562700616991372", 0, 0, {}]]]}, {"name": "conv30.03733135318181868", "class_name": "Activation", "config": {"name": "conv30.03733135318181868", "trainable": true, "activation": "relu"}, "inbound_nodes": [[["conv3.bn10.9011600147464808", 0, 0, {}]]]}, {"name": "conv3.conv10.6230579892648797_pad", "class_name": "ZeroPadding2D", "config": {"name": "conv3.conv10.6230579892648797_pad", "trainable": true, "padding": [[1, 1], [1, 1]], "data_format": "channels_first"}, "inbound_nodes": [[["conv30.03733135318181868", 0, 0, {}]]]}, {"name": "conv3.conv10.6230579892648797", "class_name": "Conv2D", "config": {"name": "conv3.conv10.6230579892648797", "trainable": true, "filters": 64, "kernel_size": [3, 3], "strides": [1, 1], "padding": "valid", "data_format": "channels_first", "dilation_rate": [1, 1], "activation": "linear", "use_bias": false, "kernel_initializer": {"class_name": "Zeros", "config": {}}, "bias_initializer": {"class_name": "Zeros", "config": {}}, "kernel_regularizer": null, "bias_regularizer": null, "activity_regularizer": null, "kernel_constraint": null, "bias_constraint": null}, "inbound_nodes": [[["conv3.conv10.6230579892648797_pad", 0, 0, {}]]]}, {"name": "conv3.bn20.7540474288125697", "class_name": "BatchNormalization", "config": {"name": "conv3.bn20.7540474288125697", "trainable": true, "axis": 1, "momentum": 1.0, "epsilon": 1e-05, "center": true, "scale": true, "beta_initializer": {"class_name": "Zeros", "config": {}}, "gamma_initializer": {"class_name": "Ones", "config": {}}, "moving_mean_initializer": {"class_name": "Zeros", "config": {}}, "moving_variance_initializer": {"class_name": "Ones", "config": {}}, "beta_regularizer": null, "gamma_regularizer": null, "beta_constraint": null, "gamma_constraint": null}, "inbound_nodes": [[["conv3.conv10.6230579892648797", 0, 0, {}]]]}, {"name": "conv30.1594900709738717", "class_name": "Activation", "config": {"name": "conv30.1594900709738717", "trainable": true, "activation": "relu"}, "inbound_nodes": [[["conv3.bn20.7540474288125697", 0, 0, {}]]]}, {"name": "conv3.conv20.20891373003284686_pad", "class_name": "ZeroPadding2D", "config": {"name": "conv3.conv20.20891373003284686_pad", "trainable": true, "padding": [[1, 1], [1, 1]], "data_format": "channels_first"}, "inbound_nodes": [[["conv30.1594900709738717", 0, 0, {}]]]}, {"name": "conv3.conv20.20891373003284686", "class_name": "Conv2D", "config": {"name": "conv3.conv20.20891373003284686", "trainable": true, "filters": 32, "kernel_size": [3, 3], "strides": [1, 1], "padding": "valid", "data_format": "channels_first", "dilation_rate": [1, 1], "activation": "linear", "use_bias": false, "kernel_initializer": {"class_name": "Zeros", "config": {}}, "bias_initializer": {"class_name": "Zeros", "config": {}}, "kernel_regularizer": null, "bias_regularizer": null, "activity_regularizer": null, "kernel_constraint": null, "bias_constraint": null}, "inbound_nodes": [[["conv3.conv20.20891373003284686_pad", 0, 0, {}]]]}, {"name": "conv3.bn30.1459100301835201", "class_name": "BatchNormalization", "config": {"name": "conv3.bn30.1459100301835201", "trainable": true, "axis": 1, "momentum": 1.0, "epsilon": 1e-05, "center": true, "scale": true, "beta_initializer": {"class_name": "Zeros", "config": {}}, "gamma_initializer": {"class_name": "Ones", "config": {}}, "moving_mean_initializer": {"class_name": "Zeros", "config": {}}, "moving_variance_initializer": {"class_name": "Ones", "config": {}}, "beta_regularizer": null, "gamma_regularizer": null, "beta_constraint": null, "gamma_constraint": null}, "inbound_nodes": [[["conv3.conv20.20891373003284686", 0, 0, {}]]]}, {"name": "conv30.18684991008116902", "class_name": "Activation", "config": {"name": "conv30.18684991008116902", "trainable": true, "activation": "relu"}, "inbound_nodes": [[["conv3.bn30.1459100301835201", 0, 0, {}]]]}, {"name": "conv3.conv30.8621276090800334_pad", "class_name": "ZeroPadding2D", "config": {"name": "conv3.conv30.8621276090800334_pad", "trainable": true, "padding": [[1, 1], [1, 1]], "data_format": "channels_first"}, "inbound_nodes": [[["conv30.18684991008116902", 0, 0, {}]]]}, {"name": "conv3.conv30.8621276090800334", "class_name": "Conv2D", "config": {"name": "conv3.conv30.8621276090800334", "trainable": true, "filters": 32, "kernel_size": [3, 3], "strides": [1, 1], "padding": "valid", "data_format": "channels_first", "dilation_rate": [1, 1], "activation": "linear", "use_bias": false, "kernel_initializer": {"class_name": "Zeros", "config": {}}, "bias_initializer": {"class_name": "Zeros", "config": {}}, "kernel_regularizer": null, "bias_regularizer": null, "activity_regularizer": null, "kernel_constraint": null, "bias_constraint": null}, "inbound_nodes": [[["conv3.conv30.8621276090800334_pad", 0, 0, {}]]]}, {"name": "conv30.29296806478673953", "class_name": "Concatenate", "config": {"name": "conv30.29296806478673953", "trainable": true, "axis": 1}, "inbound_nodes": [[["conv3.conv10.6230579892648797", 0, 0, {}], ["conv3.conv20.20891373003284686", 0, 0, {}], ["conv3.conv30.8621276090800334", 0, 0, {}]]]}, {"name": "conv30.6157925068033105", "class_name": "Add", "config": {"name": "conv30.6157925068033105", "trainable": true}, "inbound_nodes": [[["conv30.29296806478673953", 0, 0, {}], ["0.3562700616991372", 0, 0, {}]]]}, {"name": "conv4.bn10.9565432456897687", "class_name": "BatchNormalization", "config": {"name": "conv4.bn10.9565432456897687", "trainable": true, "axis": 1, "momentum": 1.0, "epsilon": 1e-05, "center": true, "scale": true, "beta_initializer": {"class_name": "Zeros", "config": {}}, "gamma_initializer": {"class_name": "Ones", "config": {}}, "moving_mean_initializer": {"class_name": "Zeros", "config": {}}, "moving_variance_initializer": {"class_name": "Ones", "config": {}}, "beta_regularizer": null, "gamma_regularizer": null, "beta_constraint": null, "gamma_constraint": null}, "inbound_nodes": [[["conv30.6157925068033105", 0, 0, {}]]]}, {"name": "conv40.02214144751842506", "class_name": "Activation", "config": {"name": "conv40.02214144751842506", "trainable": true, "activation": "relu"}, "inbound_nodes": [[["conv4.bn10.9565432456897687", 0, 0, {}]]]}, {"name": "conv4.conv10.4447770094701977_pad", "class_name": "ZeroPadding2D", "config": {"name": "conv4.conv10.4447770094701977_pad", "trainable": true, "padding": [[1, 1], [1, 1]], "data_format": "channels_first"}, "inbound_nodes": [[["conv40.02214144751842506", 0, 0, {}]]]}, {"name": "conv4.conv10.4447770094701977", "class_name": "Conv2D", "config": {"name": "conv4.conv10.4447770094701977", "trainable": true, "filters": 128, "kernel_size": [3, 3], "strides": [1, 1], "padding": "valid", "data_format": "channels_first", "dilation_rate": [1, 1], "activation": "linear", "use_bias": false, "kernel_initializer": {"class_name": "Zeros", "config": {}}, "bias_initializer": {"class_name": "Zeros", "config": {}}, "kernel_regularizer": null, "bias_regularizer": null, "activity_regularizer": null, "kernel_constraint": null, "bias_constraint": null}, "inbound_nodes": [[["conv4.conv10.4447770094701977_pad", 0, 0, {}]]]}, {"name": "conv4.bn20.6813421261903303", "class_name": "BatchNormalization", "config": {"name": "conv4.bn20.6813421261903303", "trainable": true, "axis": 1, "momentum": 1.0, "epsilon": 1e-05, "center": true, "scale": true, "beta_initializer": {"class_name": "Zeros", "config": {}}, "gamma_initializer": {"class_name": "Ones", "config": {}}, "moving_mean_initializer": {"class_name": "Zeros", "config": {}}, "moving_variance_initializer": {"class_name": "Ones", "config": {}}, "beta_regularizer": null, "gamma_regularizer": null, "beta_constraint": null, "gamma_constraint": null}, "inbound_nodes": [[["conv4.conv10.4447770094701977", 0, 0, {}]]]}, {"name": "conv40.7892804219895979", "class_name": "Activation", "config": {"name": "conv40.7892804219895979", "trainable": true, "activation": "relu"}, "inbound_nodes": [[["conv4.bn20.6813421261903303", 0, 0, {}]]]}, {"name": "conv4.conv20.6187472531640607_pad", "class_name": "ZeroPadding2D", "config": {"name": "conv4.conv20.6187472531640607_pad", "trainable": true, "padding": [[1, 1], [1, 1]], "data_format": "channels_first"}, "inbound_nodes": [[["conv40.7892804219895979", 0, 0, {}]]]}, {"name": "conv4.conv20.6187472531640607", "class_name": "Conv2D", "config": {"name": "conv4.conv20.6187472531640607", "trainable": true, "filters": 64, "kernel_size": [3, 3], "strides": [1, 1], "padding": "valid", "data_format": "channels_first", "dilation_rate": [1, 1], "activation": "linear", "use_bias": false, "kernel_initializer": {"class_name": "Zeros", "config": {}}, "bias_initializer": {"class_name": "Zeros", "config": {}}, "kernel_regularizer": null, "bias_regularizer": null, "activity_regularizer": null, "kernel_constraint": null, "bias_constraint": null}, "inbound_nodes": [[["conv4.conv20.6187472531640607_pad", 0, 0, {}]]]}, {"name": "conv4.bn30.332170764251955", "class_name": "BatchNormalization", "config": {"name": "conv4.bn30.332170764251955", "trainable": true, "axis": 1, "momentum": 1.0, "epsilon": 1e-05, "center": true, "scale": true, "beta_initializer": {"class_name": "Zeros", "config": {}}, "gamma_initializer": {"class_name": "Ones", "config": {}}, "moving_mean_initializer": {"class_name": "Zeros", "config": {}}, "moving_variance_initializer": {"class_name": "Ones", "config": {}}, "beta_regularizer": null, "gamma_regularizer": null, "beta_constraint": null, "gamma_constraint": null}, "inbound_nodes": [[["conv4.conv20.6187472531640607", 0, 0, {}]]]}, {"name": "conv40.0025872069333919834", "class_name": "Activation", "config": {"name": "conv40.0025872069333919834", "trainable": true, "activation": "relu"}, "inbound_nodes": [[["conv4.bn30.332170764251955", 0, 0, {}]]]}, {"name": "conv4.conv30.18986388491669148_pad", "class_name": "ZeroPadding2D", "config": {"name": "conv4.conv30.18986388491669148_pad", "trainable": true, "padding": [[1, 1], [1, 1]], "data_format": "channels_first"}, "inbound_nodes": [[["conv40.0025872069333919834", 0, 0, {}]]]}, {"name": "conv4.downsample.00.7252991282606378", "class_name": "BatchNormalization", "config": {"name": "conv4.downsample.00.7252991282606378", "trainable": true, "axis": 1, "momentum": 1.0, "epsilon": 1e-05, "center": true, "scale": true, "beta_initializer": {"class_name": "Zeros", "config": {}}, "gamma_initializer": {"class_name": "Ones", "config": {}}, "moving_mean_initializer": {"class_name": "Zeros", "config": {}}, "moving_variance_initializer": {"class_name": "Ones", "config": {}}, "beta_regularizer": null, "gamma_regularizer": null, "beta_constraint": null, "gamma_constraint": null}, "inbound_nodes": [[["conv30.6157925068033105", 0, 0, {}]]]}, {"name": "conv4.conv30.18986388491669148", "class_name": "Conv2D", "config": {"name": "conv4.conv30.18986388491669148", "trainable": true, "filters": 64, "kernel_size": [3, 3], "strides": [1, 1], "padding": "valid", "data_format": "channels_first", "dilation_rate": [1, 1], "activation": "linear", "use_bias": false, "kernel_initializer": {"class_name": "Zeros", "config": {}}, "bias_initializer": {"class_name": "Zeros", "config": {}}, "kernel_regularizer": null, "bias_regularizer": null, "activity_regularizer": null, "kernel_constraint": null, "bias_constraint": null}, "inbound_nodes": [[["conv4.conv30.18986388491669148_pad", 0, 0, {}]]]}, {"name": "conv4.downsample.10.604307684152542", "class_name": "Activation", "config": {"name": "conv4.downsample.10.604307684152542", "trainable": true, "activation": "relu"}, "inbound_nodes": [[["conv4.downsample.00.7252991282606378", 0, 0, {}]]]}, {"name": "conv40.5391922040063009", "class_name": "Concatenate", "config": {"name": "conv40.5391922040063009", "trainable": true, "axis": 1}, "inbound_nodes": [[["conv4.conv10.4447770094701977", 0, 0, {}], ["conv4.conv20.6187472531640607", 0, 0, {}], ["conv4.conv30.18986388491669148", 0, 0, {}]]]}, {"name": "conv4.downsample.20.909522184527504", "class_name": "Conv2D", "config": {"name": "conv4.downsample.20.909522184527504", "trainable": true, "filters": 256, "kernel_size": [1, 1], "strides": [1, 1], "padding": "valid", "data_format": "channels_first", "dilation_rate": [1, 1], "activation": "linear", "use_bias": false, "kernel_initializer": {"class_name": "Zeros", "config": {}}, "bias_initializer": {"class_name": "Zeros", "config": {}}, "kernel_regularizer": null, "bias_regularizer": null, "activity_regularizer": null, "kernel_constraint": null, "bias_constraint": null}, "inbound_nodes": [[["conv4.downsample.10.604307684152542", 0, 0, {}]]]}, {"name": "conv40.3442247930402429", "class_name": "Add", "config": {"name": "conv40.3442247930402429", "trainable": true}, "inbound_nodes": [[["conv40.5391922040063009", 0, 0, {}], ["conv4.downsample.20.909522184527504", 0, 0, {}]]]}, {"name": "m00.6959272257602114", "class_name": "ZeroPadding2D", "config": {"name": "m00.6959272257602114", "trainable": true, "padding": [[0, 0], [0, 0]], "data_format": "channels_first"}, "inbound_nodes": [[["conv40.3442247930402429", 0, 0, {}]]]}, {"name": "m00.7934122721986742_pad", "class_name": "ZeroPadding2D", "config": {"name": "m00.7934122721986742_pad", "trainable": true, "padding": [[0, 0], [0, 0]], "data_format": "channels_first"}, "inbound_nodes": [[["m00.6959272257602114", 0, 0, {}]]]}, {"name": "m00.7934122721986742", "class_name": "AveragePooling2D", "config": {"name": "m00.7934122721986742", "trainable": true, "pool_size": [2, 2], "padding": "valid", "strides": [2, 2], "data_format": "channels_first"}, "inbound_nodes": [[["m00.7934122721986742_pad", 0, 0, {}]]]}, {"name": "m0.b2_4.bn10.17972878778728185", "class_name": "BatchNormalization", "config": {"name": "m0.b2_4.bn10.17972878778728185", "trainable": true, "axis": 1, "momentum": 1.0, "epsilon": 1e-05, "center": true, "scale": true, "beta_initializer": {"class_name": "Zeros", "config": {}}, "gamma_initializer": {"class_name": "Ones", "config": {}}, "moving_mean_initializer": {"class_name": "Zeros", "config": {}}, "moving_variance_initializer": {"class_name": "Ones", "config": {}}, "beta_regularizer": null, "gamma_regularizer": null, "beta_constraint": null, "gamma_constraint": null}, "inbound_nodes": [[["m00.7934122721986742", 0, 0, {}]]]}, {"name": "m0.b2_40.5926955996206569", "class_name": "Activation", "config": {"name": "m0.b2_40.5926955996206569", "trainable": true, "activation": "relu"}, "inbound_nodes": [[["m0.b2_4.bn10.17972878778728185", 0, 0, {}]]]}, {"name": "m0.b2_4.conv10.6245259459957456_pad", "class_name": "ZeroPadding2D", "config": {"name": "m0.b2_4.conv10.6245259459957456_pad", "trainable": true, "padding": [[1, 1], [1, 1]], "data_format": "channels_first"}, "inbound_nodes": [[["m0.b2_40.5926955996206569", 0, 0, {}]]]}, {"name": "m0.b2_4.conv10.6245259459957456", "class_name": "Conv2D", "config": {"name": "m0.b2_4.conv10.6245259459957456", "trainable": true, "filters": 128, "kernel_size": [3, 3], "strides": [1, 1], "padding": "valid", "data_format": "channels_first", "dilation_rate": [1, 1], "activation": "linear", "use_bias": false, "kernel_initializer": {"class_name": "Zeros", "config": {}}, "bias_initializer": {"class_name": "Zeros", "config": {}}, "kernel_regularizer": null, "bias_regularizer": null, "activity_regularizer": null, "kernel_constraint": null, "bias_constraint": null}, "inbound_nodes": [[["m0.b2_4.conv10.6245259459957456_pad", 0, 0, {}]]]}, {"name": "m0.b2_4.bn20.1468858065832107", "class_name": "BatchNormalization", "config": {"name": "m0.b2_4.bn20.1468858065832107", "trainable": true, "axis": 1, "momentum": 1.0, "epsilon": 1e-05, "center": true, "scale": true, "beta_initializer": {"class_name": "Zeros", "config": {}}, "gamma_initializer": {"class_name": "Ones", "config": {}}, "moving_mean_initializer": {"class_name": "Zeros", "config": {}}, "moving_variance_initializer": {"class_name": "Ones", "config": {}}, "beta_regularizer": null, "gamma_regularizer": null, "beta_constraint": null, "gamma_constraint": null}, "inbound_nodes": [[["m0.b2_4.conv10.6245259459957456", 0, 0, {}]]]}, {"name": "m0.b2_40.33840789949957084", "class_name": "Activation", "config": {"name": "m0.b2_40.33840789949957084", "trainable": true, "activation": "relu"}, "inbound_nodes": [[["m0.b2_4.bn20.1468858065832107", 0, 0, {}]]]}, {"name": "m0.b2_4.conv20.5273297604352278_pad", "class_name": "ZeroPadding2D", "config": {"name": "m0.b2_4.conv20.5273297604352278_pad", "trainable": true, "padding": [[1, 1], [1, 1]], "data_format": "channels_first"}, "inbound_nodes": [[["m0.b2_40.33840789949957084", 0, 0, {}]]]}, {"name": "m0.b2_4.conv20.5273297604352278", "class_name": "Conv2D", "config": {"name": "m0.b2_4.conv20.5273297604352278", "trainable": true, "filters": 64, "kernel_size": [3, 3], "strides": [1, 1], "padding": "valid", "data_format": "channels_first", "dilation_rate": [1, 1], "activation": "linear", "use_bias": false, "kernel_initializer": {"class_name": "Zeros", "config": {}}, "bias_initializer": {"class_name": "Zeros", "config": {}}, "kernel_regularizer": null, "bias_regularizer": null, "activity_regularizer": null, "kernel_constraint": null, "bias_constraint": null}, "inbound_nodes": [[["m0.b2_4.conv20.5273297604352278_pad", 0, 0, {}]]]}, {"name": "m0.b2_4.bn30.5664979375151012", "class_name": "BatchNormalization", "config": {"name": "m0.b2_4.bn30.5664979375151012", "trainable": true, "axis": 1, "momentum": 1.0, "epsilon": 1e-05, "center": true, "scale": true, "beta_initializer": {"class_name": "Zeros", "config": {}}, "gamma_initializer": {"class_name": "Ones", "config": {}}, "moving_mean_initializer": {"class_name": "Zeros", "config": {}}, "moving_variance_initializer": {"class_name": "Ones", "config": {}}, "beta_regularizer": null, "gamma_regularizer": null, "beta_constraint": null, "gamma_constraint": null}, "inbound_nodes": [[["m0.b2_4.conv20.5273297604352278", 0, 0, {}]]]}, {"name": "m0.b2_40.9980825190281788", "class_name": "Activation", "config": {"name": "m0.b2_40.9980825190281788", "trainable": true, "activation": "relu"}, "inbound_nodes": [[["m0.b2_4.bn30.5664979375151012", 0, 0, {}]]]}, {"name": "m0.b2_4.conv30.3312981137774872_pad", "class_name": "ZeroPadding2D", "config": {"name": "m0.b2_4.conv30.3312981137774872_pad", "trainable": true, "padding": [[1, 1], [1, 1]], "data_format": "channels_first"}, "inbound_nodes": [[["m0.b2_40.9980825190281788", 0, 0, {}]]]}, {"name": "m0.b2_4.conv30.3312981137774872", "class_name": "Conv2D", "config": {"name": "m0.b2_4.conv30.3312981137774872", "trainable": true, "filters": 64, "kernel_size": [3, 3], "strides": [1, 1], "padding": "valid", "data_format": "channels_first", "dilation_rate": [1, 1], "activation": "linear", "use_bias": false, "kernel_initializer": {"class_name": "Zeros", "config": {}}, "bias_initializer": {"class_name": "Zeros", "config": {}}, "kernel_regularizer": null, "bias_regularizer": null, "activity_regularizer": null, "kernel_constraint": null, "bias_constraint": null}, "inbound_nodes": [[["m0.b2_4.conv30.3312981137774872_pad", 0, 0, {}]]]}, {"name": "m0.b2_40.7331246254066066", "class_name": "Concatenate", "config": {"name": "m0.b2_40.7331246254066066", "trainable": true, "axis": 1}, "inbound_nodes": [[["m0.b2_4.conv10.6245259459957456", 0, 0, {}], ["m0.b2_4.conv20.5273297604352278", 0, 0, {}], ["m0.b2_4.conv30.3312981137774872", 0, 0, {}]]]}, {"name": "m0.b2_40.3942045568233937", "class_name": "Add", "config": {"name": "m0.b2_40.3942045568233937", "trainable": true}, "inbound_nodes": [[["m0.b2_40.7331246254066066", 0, 0, {}], ["m00.7934122721986742", 0, 0, {}]]]}, {"name": "m00.030650384164257694", "class_name": "ZeroPadding2D", "config": {"name": "m00.030650384164257694", "trainable": true, "padding": [[0, 0], [0, 0]], "data_format": "channels_first"}, "inbound_nodes": [[["m0.b2_40.3942045568233937", 0, 0, {}]]]}, {"name": "m00.04992704126754899_pad", "class_name": "ZeroPadding2D", "config": {"name": "m00.04992704126754899_pad", "trainable": true, "padding": [[0, 0], [0, 0]], "data_format": "channels_first"}, "inbound_nodes": [[["m00.030650384164257694", 0, 0, {}]]]}, {"name": "m00.04992704126754899", "class_name": "AveragePooling2D", "config": {"name": "m00.04992704126754899", "trainable": true, "pool_size": [2, 2], "padding": "valid", "strides": [2, 2], "data_format": "channels_first"}, "inbound_nodes": [[["m00.04992704126754899_pad", 0, 0, {}]]]}, {"name": "m0.b2_3.bn10.5667738090762796", "class_name": "BatchNormalization", "config": {"name": "m0.b2_3.bn10.5667738090762796", "trainable": true, "axis": 1, "momentum": 1.0, "epsilon": 1e-05, "center": true, "scale": true, "beta_initializer": {"class_name": "Zeros", "config": {}}, "gamma_initializer": {"class_name": "Ones", "config": {}}, "moving_mean_initializer": {"class_name": "Zeros", "config": {}}, "moving_variance_initializer": {"class_name": "Ones", "config": {}}, "beta_regularizer": null, "gamma_regularizer": null, "beta_constraint": null, "gamma_constraint": null}, "inbound_nodes": [[["m00.04992704126754899", 0, 0, {}]]]}, {"name": "m0.b2_30.9403980356821119", "class_name": "Activation", "config": {"name": "m0.b2_30.9403980356821119", "trainable": true, "activation": "relu"}, "inbound_nodes": [[["m0.b2_3.bn10.5667738090762796", 0, 0, {}]]]}, {"name": "m0.b2_3.conv10.9695152731694898_pad", "class_name": "ZeroPadding2D", "config": {"name": "m0.b2_3.conv10.9695152731694898_pad", "trainable": true, "padding": [[1, 1], [1, 1]], "data_format": "channels_first"}, "inbound_nodes": [[["m0.b2_30.9403980356821119", 0, 0, {}]]]}, {"name": "m0.b2_3.conv10.9695152731694898", "class_name": "Conv2D", "config": {"name": "m0.b2_3.conv10.9695152731694898", "trainable": true, "filters": 128, "kernel_size": [3, 3], "strides": [1, 1], "padding": "valid", "data_format": "channels_first", "dilation_rate": [1, 1], "activation": "linear", "use_bias": false, "kernel_initializer": {"class_name": "Zeros", "config": {}}, "bias_initializer": {"class_name": "Zeros", "config": {}}, "kernel_regularizer": null, "bias_regularizer": null, "activity_regularizer": null, "kernel_constraint": null, "bias_constraint": null}, "inbound_nodes": [[["m0.b2_3.conv10.9695152731694898_pad", 0, 0, {}]]]}, {"name": "m0.b2_3.bn20.03756775466738094", "class_name": "BatchNormalization", "config": {"name": "m0.b2_3.bn20.03756775466738094", "trainable": true, "axis": 1, "momentum": 1.0, "epsilon": 1e-05, "center": true, "scale": true, "beta_initializer": {"class_name": "Zeros", "config": {}}, "gamma_initializer": {"class_name": "Ones", "config": {}}, "moving_mean_initializer": {"class_name": "Zeros", "config": {}}, "moving_variance_initializer": {"class_name": "Ones", "config": {}}, "beta_regularizer": null, "gamma_regularizer": null, "beta_constraint": null, "gamma_constraint": null}, "inbound_nodes": [[["m0.b2_3.conv10.9695152731694898", 0, 0, {}]]]}, {"name": "m0.b2_30.44298597646773497", "class_name": "Activation", "config": {"name": "m0.b2_30.44298597646773497", "trainable": true, "activation": "relu"}, "inbound_nodes": [[["m0.b2_3.bn20.03756775466738094", 0, 0, {}]]]}, {"name": "m0.b2_3.conv20.4275458269053173_pad", "class_name": "ZeroPadding2D", "config": {"name": "m0.b2_3.conv20.4275458269053173_pad", "trainable": true, "padding": [[1, 1], [1, 1]], "data_format": "channels_first"}, "inbound_nodes": [[["m0.b2_30.44298597646773497", 0, 0, {}]]]}, {"name": "m0.b2_3.conv20.4275458269053173", "class_name": "Conv2D", "config": {"name": "m0.b2_3.conv20.4275458269053173", "trainable": true, "filters": 64, "kernel_size": [3, 3], "strides": [1, 1], "padding": "valid", "data_format": "channels_first", "dilation_rate": [1, 1], "activation": "linear", "use_bias": false, "kernel_initializer": {"class_name": "Zeros", "config": {}}, "bias_initializer": {"class_name": "Zeros", "config": {}}, "kernel_regularizer": null, "bias_regularizer": null, "activity_regularizer": null, "kernel_constraint": null, "bias_constraint": null}, "inbound_nodes": [[["m0.b2_3.conv20.4275458269053173_pad", 0, 0, {}]]]}, {"name": "m0.b2_3.bn30.06680892288883711", "class_name": "BatchNormalization", "config": {"name": "m0.b2_3.bn30.06680892288883711", "trainable": true, "axis": 1, "momentum": 1.0, "epsilon": 1e-05, "center": true, "scale": true, "beta_initializer": {"class_name": "Zeros", "config": {}}, "gamma_initializer": {"class_name": "Ones", "config": {}}, "moving_mean_initializer": {"class_name": "Zeros", "config": {}}, "moving_variance_initializer": {"class_name": "Ones", "config": {}}, "beta_regularizer": null, "gamma_regularizer": null, "beta_constraint": null, "gamma_constraint": null}, "inbound_nodes": [[["m0.b2_3.conv20.4275458269053173", 0, 0, {}]]]}, {"name": "m0.b2_30.6933025544161473", "class_name": "Activation", "config": {"name": "m0.b2_30.6933025544161473", "trainable": true, "activation": "relu"}, "inbound_nodes": [[["m0.b2_3.bn30.06680892288883711", 0, 0, {}]]]}, {"name": "m0.b2_3.conv30.887542803443842_pad", "class_name": "ZeroPadding2D", "config": {"name": "m0.b2_3.conv30.887542803443842_pad", "trainable": true, "padding": [[1, 1], [1, 1]], "data_format": "channels_first"}, "inbound_nodes": [[["m0.b2_30.6933025544161473", 0, 0, {}]]]}, {"name": "m0.b2_3.conv30.887542803443842", "class_name": "Conv2D", "config": {"name": "m0.b2_3.conv30.887542803443842", "trainable": true, "filters": 64, "kernel_size": [3, 3], "strides": [1, 1], "padding": "valid", "data_format": "channels_first", "dilation_rate": [1, 1], "activation": "linear", "use_bias": false, "kernel_initializer": {"class_name": "Zeros", "config": {}}, "bias_initializer": {"class_name": "Zeros", "config": {}}, "kernel_regularizer": null, "bias_regularizer": null, "activity_regularizer": null, "kernel_constraint": null, "bias_constraint": null}, "inbound_nodes": [[["m0.b2_3.conv30.887542803443842_pad", 0, 0, {}]]]}, {"name": "m0.b2_30.8529868968895723", "class_name": "Concatenate", "config": {"name": "m0.b2_30.8529868968895723", "trainable": true, "axis": 1}, "inbound_nodes": [[["m0.b2_3.conv10.9695152731694898", 0, 0, {}], ["m0.b2_3.conv20.4275458269053173", 0, 0, {}], ["m0.b2_3.conv30.887542803443842", 0, 0, {}]]]}, {"name": "m0.b2_30.17840567245547623", "class_name": "Add", "config": {"name": "m0.b2_30.17840567245547623", "trainable": true}, "inbound_nodes": [[["m0.b2_30.8529868968895723", 0, 0, {}], ["m00.04992704126754899", 0, 0, {}]]]}, {"name": "m00.19674220138936882", "class_name": "ZeroPadding2D", "config": {"name": "m00.19674220138936882", "trainable": true, "padding": [[0, 0], [0, 0]], "data_format": "channels_first"}, "inbound_nodes": [[["m0.b2_30.17840567245547623", 0, 0, {}]]]}, {"name": "m00.4169429005473396_pad", "class_name": "ZeroPadding2D", "config": {"name": "m00.4169429005473396_pad", "trainable": true, "padding": [[0, 0], [0, 0]], "data_format": "channels_first"}, "inbound_nodes": [[["m00.19674220138936882", 0, 0, {}]]]}, {"name": "m00.4169429005473396", "class_name": "AveragePooling2D", "config": {"name": "m00.4169429005473396", "trainable": true, "pool_size": [2, 2], "padding": "valid", "strides": [2, 2], "data_format": "channels_first"}, "inbound_nodes": [[["m00.4169429005473396_pad", 0, 0, {}]]]}, {"name": "m0.b2_2.bn10.8780785789958931", "class_name": "BatchNormalization", "config": {"name": "m0.b2_2.bn10.8780785789958931", "trainable": true, "axis": 1, "momentum": 1.0, "epsilon": 1e-05, "center": true, "scale": true, "beta_initializer": {"class_name": "Zeros", "config": {}}, "gamma_initializer": {"class_name": "Ones", "config": {}}, "moving_mean_initializer": {"class_name": "Zeros", "config": {}}, "moving_variance_initializer": {"class_name": "Ones", "config": {}}, "beta_regularizer": null, "gamma_regularizer": null, "beta_constraint": null, "gamma_constraint": null}, "inbound_nodes": [[["m00.4169429005473396", 0, 0, {}]]]}, {"name": "m0.b2_20.20247603691854743", "class_name": "Activation", "config": {"name": "m0.b2_20.20247603691854743", "trainable": true, "activation": "relu"}, "inbound_nodes": [[["m0.b2_2.bn10.8780785789958931", 0, 0, {}]]]}, {"name": "m0.b2_2.conv10.04318992851339831_pad", "class_name": "ZeroPadding2D", "config": {"name": "m0.b2_2.conv10.04318992851339831_pad", "trainable": true, "padding": [[1, 1], [1, 1]], "data_format": "channels_first"}, "inbound_nodes": [[["m0.b2_20.20247603691854743", 0, 0, {}]]]}, {"name": "m0.b2_2.conv10.04318992851339831", "class_name": "Conv2D", "config": {"name": "m0.b2_2.conv10.04318992851339831", "trainable": true, "filters": 128, "kernel_size": [3, 3], "strides": [1, 1], "padding": "valid", "data_format": "channels_first", "dilation_rate": [1, 1], "activation": "linear", "use_bias": false, "kernel_initializer": {"class_name": "Zeros", "config": {}}, "bias_initializer": {"class_name": "Zeros", "config": {}}, "kernel_regularizer": null, "bias_regularizer": null, "activity_regularizer": null, "kernel_constraint": null, "bias_constraint": null}, "inbound_nodes": [[["m0.b2_2.conv10.04318992851339831_pad", 0, 0, {}]]]}, {"name": "m0.b2_2.bn20.03149558945451314", "class_name": "BatchNormalization", "config": {"name": "m0.b2_2.bn20.03149558945451314", "trainable": true, "axis": 1, "momentum": 1.0, "epsilon": 1e-05, "center": true, "scale": true, "beta_initializer": {"class_name": "Zeros", "config": {}}, "gamma_initializer": {"class_name": "Ones", "config": {}}, "moving_mean_initializer": {"class_name": "Zeros", "config": {}}, "moving_variance_initializer": {"class_name": "Ones", "config": {}}, "beta_regularizer": null, "gamma_regularizer": null, "beta_constraint": null, "gamma_constraint": null}, "inbound_nodes": [[["m0.b2_2.conv10.04318992851339831", 0, 0, {}]]]}, {"name": "m0.b2_20.9588929649542148", "class_name": "Activation", "config": {"name": "m0.b2_20.9588929649542148", "trainable": true, "activation": "relu"}, "inbound_nodes": [[["m0.b2_2.bn20.03149558945451314", 0, 0, {}]]]}, {"name": "m0.b2_2.conv20.4682644397818049_pad", "class_name": "ZeroPadding2D", "config": {"name": "m0.b2_2.conv20.4682644397818049_pad", "trainable": true, "padding": [[1, 1], [1, 1]], "data_format": "channels_first"}, "inbound_nodes": [[["m0.b2_20.9588929649542148", 0, 0, {}]]]}, {"name": "m0.b2_2.conv20.4682644397818049", "class_name": "Conv2D", "config": {"name": "m0.b2_2.conv20.4682644397818049", "trainable": true, "filters": 64, "kernel_size": [3, 3], "strides": [1, 1], "padding": "valid", "data_format": "channels_first", "dilation_rate": [1, 1], "activation": "linear", "use_bias": false, "kernel_initializer": {"class_name": "Zeros", "config": {}}, "bias_initializer": {"class_name": "Zeros", "config": {}}, "kernel_regularizer": null, "bias_regularizer": null, "activity_regularizer": null, "kernel_constraint": null, "bias_constraint": null}, "inbound_nodes": [[["m0.b2_2.conv20.4682644397818049_pad", 0, 0, {}]]]}, {"name": "m0.b2_2.bn30.8077520691471324", "class_name": "BatchNormalization", "config": {"name": "m0.b2_2.bn30.8077520691471324", "trainable": true, "axis": 1, "momentum": 1.0, "epsilon": 1e-05, "center": true, "scale": true, "beta_initializer": {"class_name": "Zeros", "config": {}}, "gamma_initializer": {"class_name": "Ones", "config": {}}, "moving_mean_initializer": {"class_name": "Zeros", "config": {}}, "moving_variance_initializer": {"class_name": "Ones", "config": {}}, "beta_regularizer": null, "gamma_regularizer": null, "beta_constraint": null, "gamma_constraint": null}, "inbound_nodes": [[["m0.b2_2.conv20.4682644397818049", 0, 0, {}]]]}, {"name": "m0.b2_20.9339689870037055", "class_name": "Activation", "config": {"name": "m0.b2_20.9339689870037055", "trainable": true, "activation": "relu"}, "inbound_nodes": [[["m0.b2_2.bn30.8077520691471324", 0, 0, {}]]]}, {"name": "m0.b2_2.conv30.7817602204016408_pad", "class_name": "ZeroPadding2D", "config": {"name": "m0.b2_2.conv30.7817602204016408_pad", "trainable": true, "padding": [[1, 1], [1, 1]], "data_format": "channels_first"}, "inbound_nodes": [[["m0.b2_20.9339689870037055", 0, 0, {}]]]}, {"name": "m0.b2_2.conv30.7817602204016408", "class_name": "Conv2D", "config": {"name": "m0.b2_2.conv30.7817602204016408", "trainable": true, "filters": 64, "kernel_size": [3, 3], "strides": [1, 1], "padding": "valid", "data_format": "channels_first", "dilation_rate": [1, 1], "activation": "linear", "use_bias": false, "kernel_initializer": {"class_name": "Zeros", "config": {}}, "bias_initializer": {"class_name": "Zeros", "config": {}}, "kernel_regularizer": null, "bias_regularizer": null, "activity_regularizer": null, "kernel_constraint": null, "bias_constraint": null}, "inbound_nodes": [[["m0.b2_2.conv30.7817602204016408_pad", 0, 0, {}]]]}, {"name": "m0.b2_20.935465436549483", "class_name": "Concatenate", "config": {"name": "m0.b2_20.935465436549483", "trainable": true, "axis": 1}, "inbound_nodes": [[["m0.b2_2.conv10.04318992851339831", 0, 0, {}], ["m0.b2_2.conv20.4682644397818049", 0, 0, {}], ["m0.b2_2.conv30.7817602204016408", 0, 0, {}]]]}, {"name": "m0.b2_20.08367147947846543", "class_name": "Add", "config": {"name": "m0.b2_20.08367147947846543", "trainable": true}, "inbound_nodes": [[["m0.b2_20.935465436549483", 0, 0, {}], ["m00.4169429005473396", 0, 0, {}]]]}, {"name": "m00.6958799235420897", "class_name": "ZeroPadding2D", "config": {"name": "m00.6958799235420897", "trainable": true, "padding": [[0, 0], [0, 0]], "data_format": "channels_first"}, "inbound_nodes": [[["m0.b2_20.08367147947846543", 0, 0, {}]]]}, {"name": "m00.9960168502996075_pad", "class_name": "ZeroPadding2D", "config": {"name": "m00.9960168502996075_pad", "trainable": true, "padding": [[0, 0], [0, 0]], "data_format": "channels_first"}, "inbound_nodes": [[["m00.6958799235420897", 0, 0, {}]]]}, {"name": "m00.9960168502996075", "class_name": "AveragePooling2D", "config": {"name": "m00.9960168502996075", "trainable": true, "pool_size": [2, 2], "padding": "valid", "strides": [2, 2], "data_format": "channels_first"}, "inbound_nodes": [[["m00.9960168502996075_pad", 0, 0, {}]]]}, {"name": "m0.b2_1.bn10.04760493171113922", "class_name": "BatchNormalization", "config": {"name": "m0.b2_1.bn10.04760493171113922", "trainable": true, "axis": 1, "momentum": 1.0, "epsilon": 1e-05, "center": true, "scale": true, "beta_initializer": {"class_name": "Zeros", "config": {}}, "gamma_initializer": {"class_name": "Ones", "config": {}}, "moving_mean_initializer": {"class_name": "Zeros", "config": {}}, "moving_variance_initializer": {"class_name": "Ones", "config": {}}, "beta_regularizer": null, "gamma_regularizer": null, "beta_constraint": null, "gamma_constraint": null}, "inbound_nodes": [[["m00.9960168502996075", 0, 0, {}]]]}, {"name": "m0.b2_10.61387176362713", "class_name": "Activation", "config": {"name": "m0.b2_10.61387176362713", "trainable": true, "activation": "relu"}, "inbound_nodes": [[["m0.b2_1.bn10.04760493171113922", 0, 0, {}]]]}, {"name": "m0.b2_1.conv10.746283082245646_pad", "class_name": "ZeroPadding2D", "config": {"name": "m0.b2_1.conv10.746283082245646_pad", "trainable": true, "padding": [[1, 1], [1, 1]], "data_format": "channels_first"}, "inbound_nodes": [[["m0.b2_10.61387176362713", 0, 0, {}]]]}, {"name": "m0.b2_1.conv10.746283082245646", "class_name": "Conv2D", "config": {"name": "m0.b2_1.conv10.746283082245646", "trainable": true, "filters": 128, "kernel_size": [3, 3], "strides": [1, 1], "padding": "valid", "data_format": "channels_first", "dilation_rate": [1, 1], "activation": "linear", "use_bias": false, "kernel_initializer": {"class_name": "Zeros", "config": {}}, "bias_initializer": {"class_name": "Zeros", "config": {}}, "kernel_regularizer": null, "bias_regularizer": null, "activity_regularizer": null, "kernel_constraint": null, "bias_constraint": null}, "inbound_nodes": [[["m0.b2_1.conv10.746283082245646_pad", 0, 0, {}]]]}, {"name": "m0.b2_1.bn20.40570703492644977", "class_name": "BatchNormalization", "config": {"name": "m0.b2_1.bn20.40570703492644977", "trainable": true, "axis": 1, "momentum": 1.0, "epsilon": 1e-05, "center": true, "scale": true, "beta_initializer": {"class_name": "Zeros", "config": {}}, "gamma_initializer": {"class_name": "Ones", "config": {}}, "moving_mean_initializer": {"class_name": "Zeros", "config": {}}, "moving_variance_initializer": {"class_name": "Ones", "config": {}}, "beta_regularizer": null, "gamma_regularizer": null, "beta_constraint": null, "gamma_constraint": null}, "inbound_nodes": [[["m0.b2_1.conv10.746283082245646", 0, 0, {}]]]}, {"name": "m0.b2_10.5896656259790747", "class_name": "Activation", "config": {"name": "m0.b2_10.5896656259790747", "trainable": true, "activation": "relu"}, "inbound_nodes": [[["m0.b2_1.bn20.40570703492644977", 0, 0, {}]]]}, {"name": "m0.b2_1.conv20.8032314990741993_pad", "class_name": "ZeroPadding2D", "config": {"name": "m0.b2_1.conv20.8032314990741993_pad", "trainable": true, "padding": [[1, 1], [1, 1]], "data_format": "channels_first"}, "inbound_nodes": [[["m0.b2_10.5896656259790747", 0, 0, {}]]]}, {"name": "m0.b2_1.conv20.8032314990741993", "class_name": "Conv2D", "config": {"name": "m0.b2_1.conv20.8032314990741993", "trainable": true, "filters": 64, "kernel_size": [3, 3], "strides": [1, 1], "padding": "valid", "data_format": "channels_first", "dilation_rate": [1, 1], "activation": "linear", "use_bias": false, "kernel_initializer": {"class_name": "Zeros", "config": {}}, "bias_initializer": {"class_name": "Zeros", "config": {}}, "kernel_regularizer": null, "bias_regularizer": null, "activity_regularizer": null, "kernel_constraint": null, "bias_constraint": null}, "inbound_nodes": [[["m0.b2_1.conv20.8032314990741993_pad", 0, 0, {}]]]}, {"name": "m0.b2_1.bn30.9605832788011968", "class_name": "BatchNormalization", "config": {"name": "m0.b2_1.bn30.9605832788011968", "trainable": true, "axis": 1, "momentum": 1.0, "epsilon": 1e-05, "center": true, "scale": true, "beta_initializer": {"class_name": "Zeros", "config": {}}, "gamma_initializer": {"class_name": "Ones", "config": {}}, "moving_mean_initializer": {"class_name": "Zeros", "config": {}}, "moving_variance_initializer": {"class_name": "Ones", "config": {}}, "beta_regularizer": null, "gamma_regularizer": null, "beta_constraint": null, "gamma_constraint": null}, "inbound_nodes": [[["m0.b2_1.conv20.8032314990741993", 0, 0, {}]]]}, {"name": "m0.b2_10.3778048569435212", "class_name": "Activation", "config": {"name": "m0.b2_10.3778048569435212", "trainable": true, "activation": "relu"}, "inbound_nodes": [[["m0.b2_1.bn30.9605832788011968", 0, 0, {}]]]}, {"name": "m0.b2_1.conv30.5128872171074264_pad", "class_name": "ZeroPadding2D", "config": {"name": "m0.b2_1.conv30.5128872171074264_pad", "trainable": true, "padding": [[1, 1], [1, 1]], "data_format": "channels_first"}, "inbound_nodes": [[["m0.b2_10.3778048569435212", 0, 0, {}]]]}, {"name": "m0.b2_1.conv30.5128872171074264", "class_name": "Conv2D", "config": {"name": "m0.b2_1.conv30.5128872171074264", "trainable": true, "filters": 64, "kernel_size": [3, 3], "strides": [1, 1], "padding": "valid", "data_format": "channels_first", "dilation_rate": [1, 1], "activation": "linear", "use_bias": false, "kernel_initializer": {"class_name": "Zeros", "config": {}}, "bias_initializer": {"class_name": "Zeros", "config": {}}, "kernel_regularizer": null, "bias_regularizer": null, "activity_regularizer": null, "kernel_constraint": null, "bias_constraint": null}, "inbound_nodes": [[["m0.b2_1.conv30.5128872171074264_pad", 0, 0, {}]]]}, {"name": "m0.b2_10.6918362273375545", "class_name": "Concatenate", "config": {"name": "m0.b2_10.6918362273375545", "trainable": true, "axis": 1}, "inbound_nodes": [[["m0.b2_1.conv10.746283082245646", 0, 0, {}], ["m0.b2_1.conv20.8032314990741993", 0, 0, {}], ["m0.b2_1.conv30.5128872171074264", 0, 0, {}]]]}, {"name": "m0.b2_10.1849368672178514", "class_name": "Add", "config": {"name": "m0.b2_10.1849368672178514", "trainable": true}, "inbound_nodes": [[["m0.b2_10.6918362273375545", 0, 0, {}], ["m00.9960168502996075", 0, 0, {}]]]}, {"name": "m0.b2_plus_1.bn10.7849106834779257", "class_name": "BatchNormalization", "config": {"name": "m0.b2_plus_1.bn10.7849106834779257", "trainable": true, "axis": 1, "momentum": 1.0, "epsilon": 1e-05, "center": true, "scale": true, "beta_initializer": {"class_name": "Zeros", "config": {}}, "gamma_initializer": {"class_name": "Ones", "config": {}}, "moving_mean_initializer": {"class_name": "Zeros", "config": {}}, "moving_variance_initializer": {"class_name": "Ones", "config": {}}, "beta_regularizer": null, "gamma_regularizer": null, "beta_constraint": null, "gamma_constraint": null}, "inbound_nodes": [[["m0.b2_10.1849368672178514", 0, 0, {}]]]}, {"name": "m0.b2_plus_10.7264127290990552", "class_name": "Activation", "config": {"name": "m0.b2_plus_10.7264127290990552", "trainable": true, "activation": "relu"}, "inbound_nodes": [[["m0.b2_plus_1.bn10.7849106834779257", 0, 0, {}]]]}, {"name": "m0.b2_plus_1.conv10.678805532713019_pad", "class_name": "ZeroPadding2D", "config": {"name": "m0.b2_plus_1.conv10.678805532713019_pad", "trainable": true, "padding": [[1, 1], [1, 1]], "data_format": "channels_first"}, "inbound_nodes": [[["m0.b2_plus_10.7264127290990552", 0, 0, {}]]]}, {"name": "m0.b2_plus_1.conv10.678805532713019", "class_name": "Conv2D", "config": {"name": "m0.b2_plus_1.conv10.678805532713019", "trainable": true, "filters": 128, "kernel_size": [3, 3], "strides": [1, 1], "padding": "valid", "data_format": "channels_first", "dilation_rate": [1, 1], "activation": "linear", "use_bias": false, "kernel_initializer": {"class_name": "Zeros", "config": {}}, "bias_initializer": {"class_name": "Zeros", "config": {}}, "kernel_regularizer": null, "bias_regularizer": null, "activity_regularizer": null, "kernel_constraint": null, "bias_constraint": null}, "inbound_nodes": [[["m0.b2_plus_1.conv10.678805532713019_pad", 0, 0, {}]]]}, {"name": "m0.b2_plus_1.bn20.07935771252632651", "class_name": "BatchNormalization", "config": {"name": "m0.b2_plus_1.bn20.07935771252632651", "trainable": true, "axis": 1, "momentum": 1.0, "epsilon": 1e-05, "center": true, "scale": true, "beta_initializer": {"class_name": "Zeros", "config": {}}, "gamma_initializer": {"class_name": "Ones", "config": {}}, "moving_mean_initializer": {"class_name": "Zeros", "config": {}}, "moving_variance_initializer": {"class_name": "Ones", "config": {}}, "beta_regularizer": null, "gamma_regularizer": null, "beta_constraint": null, "gamma_constraint": null}, "inbound_nodes": [[["m0.b2_plus_1.conv10.678805532713019", 0, 0, {}]]]}, {"name": "m0.b2_plus_10.9510925920317599", "class_name": "Activation", "config": {"name": "m0.b2_plus_10.9510925920317599", "trainable": true, "activation": "relu"}, "inbound_nodes": [[["m0.b2_plus_1.bn20.07935771252632651", 0, 0, {}]]]}, {"name": "m0.b2_plus_1.conv20.4739826117539492_pad", "class_name": "ZeroPadding2D", "config": {"name": "m0.b2_plus_1.conv20.4739826117539492_pad", "trainable": true, "padding": [[1, 1], [1, 1]], "data_format": "channels_first"}, "inbound_nodes": [[["m0.b2_plus_10.9510925920317599", 0, 0, {}]]]}, {"name": "m0.b2_plus_1.conv20.4739826117539492", "class_name": "Conv2D", "config": {"name": "m0.b2_plus_1.conv20.4739826117539492", "trainable": true, "filters": 64, "kernel_size": [3, 3], "strides": [1, 1], "padding": "valid", "data_format": "channels_first", "dilation_rate": [1, 1], "activation": "linear", "use_bias": false, "kernel_initializer": {"class_name": "Zeros", "config": {}}, "bias_initializer": {"class_name": "Zeros", "config": {}}, "kernel_regularizer": null, "bias_regularizer": null, "activity_regularizer": null, "kernel_constraint": null, "bias_constraint": null}, "inbound_nodes": [[["m0.b2_plus_1.conv20.4739826117539492_pad", 0, 0, {}]]]}, {"name": "m0.b2_plus_1.bn30.21418976153467972", "class_name": "BatchNormalization", "config": {"name": "m0.b2_plus_1.bn30.21418976153467972", "trainable": true, "axis": 1, "momentum": 1.0, "epsilon": 1e-05, "center": true, "scale": true, "beta_initializer": {"class_name": "Zeros", "config": {}}, "gamma_initializer": {"class_name": "Ones", "config": {}}, "moving_mean_initializer": {"class_name": "Zeros", "config": {}}, "moving_variance_initializer": {"class_name": "Ones", "config": {}}, "beta_regularizer": null, "gamma_regularizer": null, "beta_constraint": null, "gamma_constraint": null}, "inbound_nodes": [[["m0.b2_plus_1.conv20.4739826117539492", 0, 0, {}]]]}, {"name": "m0.b2_plus_10.6929892512326833", "class_name": "Activation", "config": {"name": "m0.b2_plus_10.6929892512326833", "trainable": true, "activation": "relu"}, "inbound_nodes": [[["m0.b2_plus_1.bn30.21418976153467972", 0, 0, {}]]]}, {"name": "m0.b2_plus_1.conv30.34365614157504676_pad", "class_name": "ZeroPadding2D", "config": {"name": "m0.b2_plus_1.conv30.34365614157504676_pad", "trainable": true, "padding": [[1, 1], [1, 1]], "data_format": "channels_first"}, "inbound_nodes": [[["m0.b2_plus_10.6929892512326833", 0, 0, {}]]]}, {"name": "m0.b2_plus_1.conv30.34365614157504676", "class_name": "Conv2D", "config": {"name": "m0.b2_plus_1.conv30.34365614157504676", "trainable": true, "filters": 64, "kernel_size": [3, 3], "strides": [1, 1], "padding": "valid", "data_format": "channels_first", "dilation_rate": [1, 1], "activation": "linear", "use_bias": false, "kernel_initializer": {"class_name": "Zeros", "config": {}}, "bias_initializer": {"class_name": "Zeros", "config": {}}, "kernel_regularizer": null, "bias_regularizer": null, "activity_regularizer": null, "kernel_constraint": null, "bias_constraint": null}, "inbound_nodes": [[["m0.b2_plus_1.conv30.34365614157504676_pad", 0, 0, {}]]]}, {"name": "m0.b2_plus_10.26580845031222056", "class_name": "Concatenate", "config": {"name": "m0.b2_plus_10.26580845031222056", "trainable": true, "axis": 1}, "inbound_nodes": [[["m0.b2_plus_1.conv10.678805532713019", 0, 0, {}], ["m0.b2_plus_1.conv20.4739826117539492", 0, 0, {}], ["m0.b2_plus_1.conv30.34365614157504676", 0, 0, {}]]]}, {"name": "m0.b2_plus_10.030819553992585513", "class_name": "Add", "config": {"name": "m0.b2_plus_10.030819553992585513", "trainable": true}, "inbound_nodes": [[["m0.b2_plus_10.26580845031222056", 0, 0, {}], ["m0.b2_10.1849368672178514", 0, 0, {}]]]}, {"name": "m0.b3_1.bn10.2149083861397576", "class_name": "BatchNormalization", "config": {"name": "m0.b3_1.bn10.2149083861397576", "trainable": true, "axis": 1, "momentum": 1.0, "epsilon": 1e-05, "center": true, "scale": true, "beta_initializer": {"class_name": "Zeros", "config": {}}, "gamma_initializer": {"class_name": "Ones", "config": {}}, "moving_mean_initializer": {"class_name": "Zeros", "config": {}}, "moving_variance_initializer": {"class_name": "Ones", "config": {}}, "beta_regularizer": null, "gamma_regularizer": null, "beta_constraint": null, "gamma_constraint": null}, "inbound_nodes": [[["m0.b2_plus_10.030819553992585513", 0, 0, {}]]]}, {"name": "m0.b1_1.bn10.8562864121644945", "class_name": "BatchNormalization", "config": {"name": "m0.b1_1.bn10.8562864121644945", "trainable": true, "axis": 1, "momentum": 1.0, "epsilon": 1e-05, "center": true, "scale": true, "beta_initializer": {"class_name": "Zeros", "config": {}}, "gamma_initializer": {"class_name": "Ones", "config": {}}, "moving_mean_initializer": {"class_name": "Zeros", "config": {}}, "moving_variance_initializer": {"class_name": "Ones", "config": {}}, "beta_regularizer": null, "gamma_regularizer": null, "beta_constraint": null, "gamma_constraint": null}, "inbound_nodes": [[["m0.b2_20.08367147947846543", 0, 0, {}]]]}, {"name": "m0.b3_10.3911209529396027", "class_name": "Activation", "config": {"name": "m0.b3_10.3911209529396027", "trainable": true, "activation": "relu"}, "inbound_nodes": [[["m0.b3_1.bn10.2149083861397576", 0, 0, {}]]]}, {"name": "m0.b1_10.45864867172982193", "class_name": "Activation", "config": {"name": "m0.b1_10.45864867172982193", "trainable": true, "activation": "relu"}, "inbound_nodes": [[["m0.b1_1.bn10.8562864121644945", 0, 0, {}]]]}, {"name": "m0.b3_1.conv10.4025056030413652_pad", "class_name": "ZeroPadding2D", "config": {"name": "m0.b3_1.conv10.4025056030413652_pad", "trainable": true, "padding": [[1, 1], [1, 1]], "data_format": "channels_first"}, "inbound_nodes": [[["m0.b3_10.3911209529396027", 0, 0, {}]]]}, {"name": "m0.b1_1.conv10.007309505781494141_pad", "class_name": "ZeroPadding2D", "config": {"name": "m0.b1_1.conv10.007309505781494141_pad", "trainable": true, "padding": [[1, 1], [1, 1]], "data_format": "channels_first"}, "inbound_nodes": [[["m0.b1_10.45864867172982193", 0, 0, {}]]]}, {"name": "m0.b3_1.conv10.4025056030413652", "class_name": "Conv2D", "config": {"name": "m0.b3_1.conv10.4025056030413652", "trainable": true, "filters": 128, "kernel_size": [3, 3], "strides": [1, 1], "padding": "valid", "data_format": "channels_first", "dilation_rate": [1, 1], "activation": "linear", "use_bias": false, "kernel_initializer": {"class_name": "Zeros", "config": {}}, "bias_initializer": {"class_name": "Zeros", "config": {}}, "kernel_regularizer": null, "bias_regularizer": null, "activity_regularizer": null, "kernel_constraint": null, "bias_constraint": null}, "inbound_nodes": [[["m0.b3_1.conv10.4025056030413652_pad", 0, 0, {}]]]}, {"name": "m0.b1_1.conv10.007309505781494141", "class_name": "Conv2D", "config": {"name": "m0.b1_1.conv10.007309505781494141", "trainable": true, "filters": 128, "kernel_size": [3, 3], "strides": [1, 1], "padding": "valid", "data_format": "channels_first", "dilation_rate": [1, 1], "activation": "linear", "use_bias": false, "kernel_initializer": {"class_name": "Zeros", "config": {}}, "bias_initializer": {"class_name": "Zeros", "config": {}}, "kernel_regularizer": null, "bias_regularizer": null, "activity_regularizer": null, "kernel_constraint": null, "bias_constraint": null}, "inbound_nodes": [[["m0.b1_1.conv10.007309505781494141_pad", 0, 0, {}]]]}, {"name": "m0.b3_1.bn20.9743549569585888", "class_name": "BatchNormalization", "config": {"name": "m0.b3_1.bn20.9743549569585888", "trainable": true, "axis": 1, "momentum": 1.0, "epsilon": 1e-05, "center": true, "scale": true, "beta_initializer": {"class_name": "Zeros", "config": {}}, "gamma_initializer": {"class_name": "Ones", "config": {}}, "moving_mean_initializer": {"class_name": "Zeros", "config": {}}, "moving_variance_initializer": {"class_name": "Ones", "config": {}}, "beta_regularizer": null, "gamma_regularizer": null, "beta_constraint": null, "gamma_constraint": null}, "inbound_nodes": [[["m0.b3_1.conv10.4025056030413652", 0, 0, {}]]]}, {"name": "m0.b1_1.bn20.6813175172893083", "class_name": "BatchNormalization", "config": {"name": "m0.b1_1.bn20.6813175172893083", "trainable": true, "axis": 1, "momentum": 1.0, "epsilon": 1e-05, "center": true, "scale": true, "beta_initializer": {"class_name": "Zeros", "config": {}}, "gamma_initializer": {"class_name": "Ones", "config": {}}, "moving_mean_initializer": {"class_name": "Zeros", "config": {}}, "moving_variance_initializer": {"class_name": "Ones", "config": {}}, "beta_regularizer": null, "gamma_regularizer": null, "beta_constraint": null, "gamma_constraint": null}, "inbound_nodes": [[["m0.b1_1.conv10.007309505781494141", 0, 0, {}]]]}, {"name": "m0.b3_10.116504042450702", "class_name": "Activation", "config": {"name": "m0.b3_10.116504042450702", "trainable": true, "activation": "relu"}, "inbound_nodes": [[["m0.b3_1.bn20.9743549569585888", 0, 0, {}]]]}, {"name": "m0.b1_10.08394223049943328", "class_name": "Activation", "config": {"name": "m0.b1_10.08394223049943328", "trainable": true, "activation": "relu"}, "inbound_nodes": [[["m0.b1_1.bn20.6813175172893083", 0, 0, {}]]]}, {"name": "m0.b3_1.conv20.6995902506760302_pad", "class_name": "ZeroPadding2D", "config": {"name": "m0.b3_1.conv20.6995902506760302_pad", "trainable": true, "padding": [[1, 1], [1, 1]], "data_format": "channels_first"}, "inbound_nodes": [[["m0.b3_10.116504042450702", 0, 0, {}]]]}, {"name": "m0.b1_1.conv20.3691740752363949_pad", "class_name": "ZeroPadding2D", "config": {"name": "m0.b1_1.conv20.3691740752363949_pad", "trainable": true, "padding": [[1, 1], [1, 1]], "data_format": "channels_first"}, "inbound_nodes": [[["m0.b1_10.08394223049943328", 0, 0, {}]]]}, {"name": "m0.b3_1.conv20.6995902506760302", "class_name": "Conv2D", "config": {"name": "m0.b3_1.conv20.6995902506760302", "trainable": true, "filters": 64, "kernel_size": [3, 3], "strides": [1, 1], "padding": "valid", "data_format": "channels_first", "dilation_rate": [1, 1], "activation": "linear", "use_bias": false, "kernel_initializer": {"class_name": "Zeros", "config": {}}, "bias_initializer": {"class_name": "Zeros", "config": {}}, "kernel_regularizer": null, "bias_regularizer": null, "activity_regularizer": null, "kernel_constraint": null, "bias_constraint": null}, "inbound_nodes": [[["m0.b3_1.conv20.6995902506760302_pad", 0, 0, {}]]]}, {"name": "m0.b1_1.conv20.3691740752363949", "class_name": "Conv2D", "config": {"name": "m0.b1_1.conv20.3691740752363949", "trainable": true, "filters": 64, "kernel_size": [3, 3], "strides": [1, 1], "padding": "valid", "data_format": "channels_first", "dilation_rate": [1, 1], "activation": "linear", "use_bias": false, "kernel_initializer": {"class_name": "Zeros", "config": {}}, "bias_initializer": {"class_name": "Zeros", "config": {}}, "kernel_regularizer": null, "bias_regularizer": null, "activity_regularizer": null, "kernel_constraint": null, "bias_constraint": null}, "inbound_nodes": [[["m0.b1_1.conv20.3691740752363949_pad", 0, 0, {}]]]}, {"name": "m0.b3_1.bn30.8698233281818529", "class_name": "BatchNormalization", "config": {"name": "m0.b3_1.bn30.8698233281818529", "trainable": true, "axis": 1, "momentum": 1.0, "epsilon": 1e-05, "center": true, "scale": true, "beta_initializer": {"class_name": "Zeros", "config": {}}, "gamma_initializer": {"class_name": "Ones", "config": {}}, "moving_mean_initializer": {"class_name": "Zeros", "config": {}}, "moving_variance_initializer": {"class_name": "Ones", "config": {}}, "beta_regularizer": null, "gamma_regularizer": null, "beta_constraint": null, "gamma_constraint": null}, "inbound_nodes": [[["m0.b3_1.conv20.6995902506760302", 0, 0, {}]]]}, {"name": "m0.b1_1.bn30.9791681033059808", "class_name": "BatchNormalization", "config": {"name": "m0.b1_1.bn30.9791681033059808", "trainable": true, "axis": 1, "momentum": 1.0, "epsilon": 1e-05, "center": true, "scale": true, "beta_initializer": {"class_name": "Zeros", "config": {}}, "gamma_initializer": {"class_name": "Ones", "config": {}}, "moving_mean_initializer": {"class_name": "Zeros", "config": {}}, "moving_variance_initializer": {"class_name": "Ones", "config": {}}, "beta_regularizer": null, "gamma_regularizer": null, "beta_constraint": null, "gamma_constraint": null}, "inbound_nodes": [[["m0.b1_1.conv20.3691740752363949", 0, 0, {}]]]}, {"name": "m0.b3_10.32680923007320994", "class_name": "Activation", "config": {"name": "m0.b3_10.32680923007320994", "trainable": true, "activation": "relu"}, "inbound_nodes": [[["m0.b3_1.bn30.8698233281818529", 0, 0, {}]]]}, {"name": "m0.b1_10.03953159698005515", "class_name": "Activation", "config": {"name": "m0.b1_10.03953159698005515", "trainable": true, "activation": "relu"}, "inbound_nodes": [[["m0.b1_1.bn30.9791681033059808", 0, 0, {}]]]}, {"name": "m0.b3_1.conv30.44400922876122817_pad", "class_name": "ZeroPadding2D", "config": {"name": "m0.b3_1.conv30.44400922876122817_pad", "trainable": true, "padding": [[1, 1], [1, 1]], "data_format": "channels_first"}, "inbound_nodes": [[["m0.b3_10.32680923007320994", 0, 0, {}]]]}, {"name": "m0.b1_1.conv30.35773890944118214_pad", "class_name": "ZeroPadding2D", "config": {"name": "m0.b1_1.conv30.35773890944118214_pad", "trainable": true, "padding": [[1, 1], [1, 1]], "data_format": "channels_first"}, "inbound_nodes": [[["m0.b1_10.03953159698005515", 0, 0, {}]]]}, {"name": "m0.b3_1.conv30.44400922876122817", "class_name": "Conv2D", "config": {"name": "m0.b3_1.conv30.44400922876122817", "trainable": true, "filters": 64, "kernel_size": [3, 3], "strides": [1, 1], "padding": "valid", "data_format": "channels_first", "dilation_rate": [1, 1], "activation": "linear", "use_bias": false, "kernel_initializer": {"class_name": "Zeros", "config": {}}, "bias_initializer": {"class_name": "Zeros", "config": {}}, "kernel_regularizer": null, "bias_regularizer": null, "activity_regularizer": null, "kernel_constraint": null, "bias_constraint": null}, "inbound_nodes": [[["m0.b3_1.conv30.44400922876122817_pad", 0, 0, {}]]]}, {"name": "m0.b1_1.conv30.35773890944118214", "class_name": "Conv2D", "config": {"name": "m0.b1_1.conv30.35773890944118214", "trainable": true, "filters": 64, "kernel_size": [3, 3], "strides": [1, 1], "padding": "valid", "data_format": "channels_first", "dilation_rate": [1, 1], "activation": "linear", "use_bias": false, "kernel_initializer": {"class_name": "Zeros", "config": {}}, "bias_initializer": {"class_name": "Zeros", "config": {}}, "kernel_regularizer": null, "bias_regularizer": null, "activity_regularizer": null, "kernel_constraint": null, "bias_constraint": null}, "inbound_nodes": [[["m0.b1_1.conv30.35773890944118214_pad", 0, 0, {}]]]}, {"name": "m0.b3_10.7543744598294926", "class_name": "Concatenate", "config": {"name": "m0.b3_10.7543744598294926", "trainable": true, "axis": 1}, "inbound_nodes": [[["m0.b3_1.conv10.4025056030413652", 0, 0, {}], ["m0.b3_1.conv20.6995902506760302", 0, 0, {}], ["m0.b3_1.conv30.44400922876122817", 0, 0, {}]]]}, {"name": "m0.b1_10.807081934357111", "class_name": "Concatenate", "config": {"name": "m0.b1_10.807081934357111", "trainable": true, "axis": 1}, "inbound_nodes": [[["m0.b1_1.conv10.007309505781494141", 0, 0, {}], ["m0.b1_1.conv20.3691740752363949", 0, 0, {}], ["m0.b1_1.conv30.35773890944118214", 0, 0, {}]]]}, {"name": "m0.b3_10.91252794078684", "class_name": "Add", "config": {"name": "m0.b3_10.91252794078684", "trainable": true}, "inbound_nodes": [[["m0.b3_10.7543744598294926", 0, 0, {}], ["m0.b2_plus_10.030819553992585513", 0, 0, {}]]]}, {"name": "m0.b1_10.5746200005538362", "class_name": "Add", "config": {"name": "m0.b1_10.5746200005538362", "trainable": true}, "inbound_nodes": [[["m0.b1_10.807081934357111", 0, 0, {}], ["m0.b2_20.08367147947846543", 0, 0, {}]]]}, {"name": "m00.16425554236749706", "class_name": "UpSampling2D", "config": {"name": "m00.16425554236749706", "trainable": true, "size": [2.0, 2.0], "data_format": "channels_first"}, "inbound_nodes": [[["m0.b3_10.91252794078684", 0, 0, {}]]]}, {"name": "m00.30882862901944086", "class_name": "Add", "config": {"name": "m00.30882862901944086", "trainable": true}, "inbound_nodes": [[["m0.b1_10.5746200005538362", 0, 0, {}], ["m00.16425554236749706", 0, 0, {}]]]}, {"name": "m0.b3_2.bn10.5142815685680361", "class_name": "BatchNormalization", "config": {"name": "m0.b3_2.bn10.5142815685680361", "trainable": true, "axis": 1, "momentum": 1.0, "epsilon": 1e-05, "center": true, "scale": true, "beta_initializer": {"class_name": "Zeros", "config": {}}, "gamma_initializer": {"class_name": "Ones", "config": {}}, "moving_mean_initializer": {"class_name": "Zeros", "config": {}}, "moving_variance_initializer": {"class_name": "Ones", "config": {}}, "beta_regularizer": null, "gamma_regularizer": null, "beta_constraint": null, "gamma_constraint": null}, "inbound_nodes": [[["m00.30882862901944086", 0, 0, {}]]]}, {"name": "m0.b1_2.bn10.6394530775157493", "class_name": "BatchNormalization", "config": {"name": "m0.b1_2.bn10.6394530775157493", "trainable": true, "axis": 1, "momentum": 1.0, "epsilon": 1e-05, "center": true, "scale": true, "beta_initializer": {"class_name": "Zeros", "config": {}}, "gamma_initializer": {"class_name": "Ones", "config": {}}, "moving_mean_initializer": {"class_name": "Zeros", "config": {}}, "moving_variance_initializer": {"class_name": "Ones", "config": {}}, "beta_regularizer": null, "gamma_regularizer": null, "beta_constraint": null, "gamma_constraint": null}, "inbound_nodes": [[["m0.b2_30.17840567245547623", 0, 0, {}]]]}, {"name": "m0.b3_20.32230549624621707", "class_name": "Activation", "config": {"name": "m0.b3_20.32230549624621707", "trainable": true, "activation": "relu"}, "inbound_nodes": [[["m0.b3_2.bn10.5142815685680361", 0, 0, {}]]]}, {"name": "m0.b1_20.5546558867609502", "class_name": "Activation", "config": {"name": "m0.b1_20.5546558867609502", "trainable": true, "activation": "relu"}, "inbound_nodes": [[["m0.b1_2.bn10.6394530775157493", 0, 0, {}]]]}, {"name": "m0.b3_2.conv10.20439508513552063_pad", "class_name": "ZeroPadding2D", "config": {"name": "m0.b3_2.conv10.20439508513552063_pad", "trainable": true, "padding": [[1, 1], [1, 1]], "data_format": "channels_first"}, "inbound_nodes": [[["m0.b3_20.32230549624621707", 0, 0, {}]]]}, {"name": "m0.b1_2.conv10.6377709982220526_pad", "class_name": "ZeroPadding2D", "config": {"name": "m0.b1_2.conv10.6377709982220526_pad", "trainable": true, "padding": [[1, 1], [1, 1]], "data_format": "channels_first"}, "inbound_nodes": [[["m0.b1_20.5546558867609502", 0, 0, {}]]]}, {"name": "m0.b3_2.conv10.20439508513552063", "class_name": "Conv2D", "config": {"name": "m0.b3_2.conv10.20439508513552063", "trainable": true, "filters": 128, "kernel_size": [3, 3], "strides": [1, 1], "padding": "valid", "data_format": "channels_first", "dilation_rate": [1, 1], "activation": "linear", "use_bias": false, "kernel_initializer": {"class_name": "Zeros", "config": {}}, "bias_initializer": {"class_name": "Zeros", "config": {}}, "kernel_regularizer": null, "bias_regularizer": null, "activity_regularizer": null, "kernel_constraint": null, "bias_constraint": null}, "inbound_nodes": [[["m0.b3_2.conv10.20439508513552063_pad", 0, 0, {}]]]}, {"name": "m0.b1_2.conv10.6377709982220526", "class_name": "Conv2D", "config": {"name": "m0.b1_2.conv10.6377709982220526", "trainable": true, "filters": 128, "kernel_size": [3, 3], "strides": [1, 1], "padding": "valid", "data_format": "channels_first", "dilation_rate": [1, 1], "activation": "linear", "use_bias": false, "kernel_initializer": {"class_name": "Zeros", "config": {}}, "bias_initializer": {"class_name": "Zeros", "config": {}}, "kernel_regularizer": null, "bias_regularizer": null, "activity_regularizer": null, "kernel_constraint": null, "bias_constraint": null}, "inbound_nodes": [[["m0.b1_2.conv10.6377709982220526_pad", 0, 0, {}]]]}, {"name": "m0.b3_2.bn20.17127970506033863", "class_name": "BatchNormalization", "config": {"name": "m0.b3_2.bn20.17127970506033863", "trainable": true, "axis": 1, "momentum": 1.0, "epsilon": 1e-05, "center": true, "scale": true, "beta_initializer": {"class_name": "Zeros", "config": {}}, "gamma_initializer": {"class_name": "Ones", "config": {}}, "moving_mean_initializer": {"class_name": "Zeros", "config": {}}, "moving_variance_initializer": {"class_name": "Ones", "config": {}}, "beta_regularizer": null, "gamma_regularizer": null, "beta_constraint": null, "gamma_constraint": null}, "inbound_nodes": [[["m0.b3_2.conv10.20439508513552063", 0, 0, {}]]]}, {"name": "m0.b1_2.bn20.5933188430700929", "class_name": "BatchNormalization", "config": {"name": "m0.b1_2.bn20.5933188430700929", "trainable": true, "axis": 1, "momentum": 1.0, "epsilon": 1e-05, "center": true, "scale": true, "beta_initializer": {"class_name": "Zeros", "config": {}}, "gamma_initializer": {"class_name": "Ones", "config": {}}, "moving_mean_initializer": {"class_name": "Zeros", "config": {}}, "moving_variance_initializer": {"class_name": "Ones", "config": {}}, "beta_regularizer": null, "gamma_regularizer": null, "beta_constraint": null, "gamma_constraint": null}, "inbound_nodes": [[["m0.b1_2.conv10.6377709982220526", 0, 0, {}]]]}, {"name": "m0.b3_20.7550656999701439", "class_name": "Activation", "config": {"name": "m0.b3_20.7550656999701439", "trainable": true, "activation": "relu"}, "inbound_nodes": [[["m0.b3_2.bn20.17127970506033863", 0, 0, {}]]]}, {"name": "m0.b1_20.2289402223326713", "class_name": "Activation", "config": {"name": "m0.b1_20.2289402223326713", "trainable": true, "activation": "relu"}, "inbound_nodes": [[["m0.b1_2.bn20.5933188430700929", 0, 0, {}]]]}, {"name": "m0.b3_2.conv20.16889873770385544_pad", "class_name": "ZeroPadding2D", "config": {"name": "m0.b3_2.conv20.16889873770385544_pad", "trainable": true, "padding": [[1, 1], [1, 1]], "data_format": "channels_first"}, "inbound_nodes": [[["m0.b3_20.7550656999701439", 0, 0, {}]]]}, {"name": "m0.b1_2.conv20.33399676218855656_pad", "class_name": "ZeroPadding2D", "config": {"name": "m0.b1_2.conv20.33399676218855656_pad", "trainable": true, "padding": [[1, 1], [1, 1]], "data_format": "channels_first"}, "inbound_nodes": [[["m0.b1_20.2289402223326713", 0, 0, {}]]]}, {"name": "m0.b3_2.conv20.16889873770385544", "class_name": "Conv2D", "config": {"name": "m0.b3_2.conv20.16889873770385544", "trainable": true, "filters": 64, "kernel_size": [3, 3], "strides": [1, 1], "padding": "valid", "data_format": "channels_first", "dilation_rate": [1, 1], "activation": "linear", "use_bias": false, "kernel_initializer": {"class_name": "Zeros", "config": {}}, "bias_initializer": {"class_name": "Zeros", "config": {}}, "kernel_regularizer": null, "bias_regularizer": null, "activity_regularizer": null, "kernel_constraint": null, "bias_constraint": null}, "inbound_nodes": [[["m0.b3_2.conv20.16889873770385544_pad", 0, 0, {}]]]}, {"name": "m0.b1_2.conv20.33399676218855656", "class_name": "Conv2D", "config": {"name": "m0.b1_2.conv20.33399676218855656", "trainable": true, "filters": 64, "kernel_size": [3, 3], "strides": [1, 1], "padding": "valid", "data_format": "channels_first", "dilation_rate": [1, 1], "activation": "linear", "use_bias": false, "kernel_initializer": {"class_name": "Zeros", "config": {}}, "bias_initializer": {"class_name": "Zeros", "config": {}}, "kernel_regularizer": null, "bias_regularizer": null, "activity_regularizer": null, "kernel_constraint": null, "bias_constraint": null}, "inbound_nodes": [[["m0.b1_2.conv20.33399676218855656_pad", 0, 0, {}]]]}, {"name": "m0.b3_2.bn30.27407726804787036", "class_name": "BatchNormalization", "config": {"name": "m0.b3_2.bn30.27407726804787036", "trainable": true, "axis": 1, "momentum": 1.0, "epsilon": 1e-05, "center": true, "scale": true, "beta_initializer": {"class_name": "Zeros", "config": {}}, "gamma_initializer": {"class_name": "Ones", "config": {}}, "moving_mean_initializer": {"class_name": "Zeros", "config": {}}, "moving_variance_initializer": {"class_name": "Ones", "config": {}}, "beta_regularizer": null, "gamma_regularizer": null, "beta_constraint": null, "gamma_constraint": null}, "inbound_nodes": [[["m0.b3_2.conv20.16889873770385544", 0, 0, {}]]]}, {"name": "m0.b1_2.bn30.07118438650270109", "class_name": "BatchNormalization", "config": {"name": "m0.b1_2.bn30.07118438650270109", "trainable": true, "axis": 1, "momentum": 1.0, "epsilon": 1e-05, "center": true, "scale": true, "beta_initializer": {"class_name": "Zeros", "config": {}}, "gamma_initializer": {"class_name": "Ones", "config": {}}, "moving_mean_initializer": {"class_name": "Zeros", "config": {}}, "moving_variance_initializer": {"class_name": "Ones", "config": {}}, "beta_regularizer": null, "gamma_regularizer": null, "beta_constraint": null, "gamma_constraint": null}, "inbound_nodes": [[["m0.b1_2.conv20.33399676218855656", 0, 0, {}]]]}, {"name": "m0.b3_20.8409852511821255", "class_name": "Activation", "config": {"name": "m0.b3_20.8409852511821255", "trainable": true, "activation": "relu"}, "inbound_nodes": [[["m0.b3_2.bn30.27407726804787036", 0, 0, {}]]]}, {"name": "m0.b1_20.09783825017287506", "class_name": "Activation", "config": {"name": "m0.b1_20.09783825017287506", "trainable": true, "activation": "relu"}, "inbound_nodes": [[["m0.b1_2.bn30.07118438650270109", 0, 0, {}]]]}, {"name": "m0.b3_2.conv30.3906379374368045_pad", "class_name": "ZeroPadding2D", "config": {"name": "m0.b3_2.conv30.3906379374368045_pad", "trainable": true, "padding": [[1, 1], [1, 1]], "data_format": "channels_first"}, "inbound_nodes": [[["m0.b3_20.8409852511821255", 0, 0, {}]]]}, {"name": "m0.b1_2.conv30.20359947983918436_pad", "class_name": "ZeroPadding2D", "config": {"name": "m0.b1_2.conv30.20359947983918436_pad", "trainable": true, "padding": [[1, 1], [1, 1]], "data_format": "channels_first"}, "inbound_nodes": [[["m0.b1_20.09783825017287506", 0, 0, {}]]]}, {"name": "m0.b3_2.conv30.3906379374368045", "class_name": "Conv2D", "config": {"name": "m0.b3_2.conv30.3906379374368045", "trainable": true, "filters": 64, "kernel_size": [3, 3], "strides": [1, 1], "padding": "valid", "data_format": "channels_first", "dilation_rate": [1, 1], "activation": "linear", "use_bias": false, "kernel_initializer": {"class_name": "Zeros", "config": {}}, "bias_initializer": {"class_name": "Zeros", "config": {}}, "kernel_regularizer": null, "bias_regularizer": null, "activity_regularizer": null, "kernel_constraint": null, "bias_constraint": null}, "inbound_nodes": [[["m0.b3_2.conv30.3906379374368045_pad", 0, 0, {}]]]}, {"name": "m0.b1_2.conv30.20359947983918436", "class_name": "Conv2D", "config": {"name": "m0.b1_2.conv30.20359947983918436", "trainable": true, "filters": 64, "kernel_size": [3, 3], "strides": [1, 1], "padding": "valid", "data_format": "channels_first", "dilation_rate": [1, 1], "activation": "linear", "use_bias": false, "kernel_initializer": {"class_name": "Zeros", "config": {}}, "bias_initializer": {"class_name": "Zeros", "config": {}}, "kernel_regularizer": null, "bias_regularizer": null, "activity_regularizer": null, "kernel_constraint": null, "bias_constraint": null}, "inbound_nodes": [[["m0.b1_2.conv30.20359947983918436_pad", 0, 0, {}]]]}, {"name": "m0.b3_20.3687679056583013", "class_name": "Concatenate", "config": {"name": "m0.b3_20.3687679056583013", "trainable": true, "axis": 1}, "inbound_nodes": [[["m0.b3_2.conv10.20439508513552063", 0, 0, {}], ["m0.b3_2.conv20.16889873770385544", 0, 0, {}], ["m0.b3_2.conv30.3906379374368045", 0, 0, {}]]]}, {"name": "m0.b1_20.591044303642463", "class_name": "Concatenate", "config": {"name": "m0.b1_20.591044303642463", "trainable": true, "axis": 1}, "inbound_nodes": [[["m0.b1_2.conv10.6377709982220526", 0, 0, {}], ["m0.b1_2.conv20.33399676218855656", 0, 0, {}], ["m0.b1_2.conv30.20359947983918436", 0, 0, {}]]]}, {"name": "m0.b3_20.8519537232467242", "class_name": "Add", "config": {"name": "m0.b3_20.8519537232467242", "trainable": true}, "inbound_nodes": [[["m0.b3_20.3687679056583013", 0, 0, {}], ["m00.30882862901944086", 0, 0, {}]]]}, {"name": "m0.b1_20.9594827607003222", "class_name": "Add", "config": {"name": "m0.b1_20.9594827607003222", "trainable": true}, "inbound_nodes": [[["m0.b1_20.591044303642463", 0, 0, {}], ["m0.b2_30.17840567245547623", 0, 0, {}]]]}, {"name": "m00.35607758987881166", "class_name": "UpSampling2D", "config": {"name": "m00.35607758987881166", "trainable": true, "size": [2.0, 2.0], "data_format": "channels_first"}, "inbound_nodes": [[["m0.b3_20.8519537232467242", 0, 0, {}]]]}, {"name": "m00.7468237232450605", "class_name": "Add", "config": {"name": "m00.7468237232450605", "trainable": true}, "inbound_nodes": [[["m0.b1_20.9594827607003222", 0, 0, {}], ["m00.35607758987881166", 0, 0, {}]]]}, {"name": "m0.b3_3.bn10.49236031068752895", "class_name": "BatchNormalization", "config": {"name": "m0.b3_3.bn10.49236031068752895", "trainable": true, "axis": 1, "momentum": 1.0, "epsilon": 1e-05, "center": true, "scale": true, "beta_initializer": {"class_name": "Zeros", "config": {}}, "gamma_initializer": {"class_name": "Ones", "config": {}}, "moving_mean_initializer": {"class_name": "Zeros", "config": {}}, "moving_variance_initializer": {"class_name": "Ones", "config": {}}, "beta_regularizer": null, "gamma_regularizer": null, "beta_constraint": null, "gamma_constraint": null}, "inbound_nodes": [[["m00.7468237232450605", 0, 0, {}]]]}, {"name": "m0.b1_3.bn10.06779724938875542", "class_name": "BatchNormalization", "config": {"name": "m0.b1_3.bn10.06779724938875542", "trainable": true, "axis": 1, "momentum": 1.0, "epsilon": 1e-05, "center": true, "scale": true, "beta_initializer": {"class_name": "Zeros", "config": {}}, "gamma_initializer": {"class_name": "Ones", "config": {}}, "moving_mean_initializer": {"class_name": "Zeros", "config": {}}, "moving_variance_initializer": {"class_name": "Ones", "config": {}}, "beta_regularizer": null, "gamma_regularizer": null, "beta_constraint": null, "gamma_constraint": null}, "inbound_nodes": [[["m0.b2_40.3942045568233937", 0, 0, {}]]]}, {"name": "m0.b3_30.15385705017045825", "class_name": "Activation", "config": {"name": "m0.b3_30.15385705017045825", "trainable": true, "activation": "relu"}, "inbound_nodes": [[["m0.b3_3.bn10.49236031068752895", 0, 0, {}]]]}, {"name": "m0.b1_30.6101475411835802", "class_name": "Activation", "config": {"name": "m0.b1_30.6101475411835802", "trainable": true, "activation": "relu"}, "inbound_nodes": [[["m0.b1_3.bn10.06779724938875542", 0, 0, {}]]]}, {"name": "m0.b3_3.conv10.43832320206680897_pad", "class_name": "ZeroPadding2D", "config": {"name": "m0.b3_3.conv10.43832320206680897_pad", "trainable": true, "padding": [[1, 1], [1, 1]], "data_format": "channels_first"}, "inbound_nodes": [[["m0.b3_30.15385705017045825", 0, 0, {}]]]}, {"name": "m0.b1_3.conv10.3717468419438804_pad", "class_name": "ZeroPadding2D", "config": {"name": "m0.b1_3.conv10.3717468419438804_pad", "trainable": true, "padding": [[1, 1], [1, 1]], "data_format": "channels_first"}, "inbound_nodes": [[["m0.b1_30.6101475411835802", 0, 0, {}]]]}, {"name": "m0.b3_3.conv10.43832320206680897", "class_name": "Conv2D", "config": {"name": "m0.b3_3.conv10.43832320206680897", "trainable": true, "filters": 128, "kernel_size": [3, 3], "strides": [1, 1], "padding": "valid", "data_format": "channels_first", "dilation_rate": [1, 1], "activation": "linear", "use_bias": false, "kernel_initializer": {"class_name": "Zeros", "config": {}}, "bias_initializer": {"class_name": "Zeros", "config": {}}, "kernel_regularizer": null, "bias_regularizer": null, "activity_regularizer": null, "kernel_constraint": null, "bias_constraint": null}, "inbound_nodes": [[["m0.b3_3.conv10.43832320206680897_pad", 0, 0, {}]]]}, {"name": "m0.b1_3.conv10.3717468419438804", "class_name": "Conv2D", "config": {"name": "m0.b1_3.conv10.3717468419438804", "trainable": true, "filters": 128, "kernel_size": [3, 3], "strides": [1, 1], "padding": "valid", "data_format": "channels_first", "dilation_rate": [1, 1], "activation": "linear", "use_bias": false, "kernel_initializer": {"class_name": "Zeros", "config": {}}, "bias_initializer": {"class_name": "Zeros", "config": {}}, "kernel_regularizer": null, "bias_regularizer": null, "activity_regularizer": null, "kernel_constraint": null, "bias_constraint": null}, "inbound_nodes": [[["m0.b1_3.conv10.3717468419438804_pad", 0, 0, {}]]]}, {"name": "m0.b3_3.bn20.4570191604631054", "class_name": "BatchNormalization", "config": {"name": "m0.b3_3.bn20.4570191604631054", "trainable": true, "axis": 1, "momentum": 1.0, "epsilon": 1e-05, "center": true, "scale": true, "beta_initializer": {"class_name": "Zeros", "config": {}}, "gamma_initializer": {"class_name": "Ones", "config": {}}, "moving_mean_initializer": {"class_name": "Zeros", "config": {}}, "moving_variance_initializer": {"class_name": "Ones", "config": {}}, "beta_regularizer": null, "gamma_regularizer": null, "beta_constraint": null, "gamma_constraint": null}, "inbound_nodes": [[["m0.b3_3.conv10.43832320206680897", 0, 0, {}]]]}, {"name": "m0.b1_3.bn20.1363036050851012", "class_name": "BatchNormalization", "config": {"name": "m0.b1_3.bn20.1363036050851012", "trainable": true, "axis": 1, "momentum": 1.0, "epsilon": 1e-05, "center": true, "scale": true, "beta_initializer": {"class_name": "Zeros", "config": {}}, "gamma_initializer": {"class_name": "Ones", "config": {}}, "moving_mean_initializer": {"class_name": "Zeros", "config": {}}, "moving_variance_initializer": {"class_name": "Ones", "config": {}}, "beta_regularizer": null, "gamma_regularizer": null, "beta_constraint": null, "gamma_constraint": null}, "inbound_nodes": [[["m0.b1_3.conv10.3717468419438804", 0, 0, {}]]]}, {"name": "m0.b3_30.361765760790703", "class_name": "Activation", "config": {"name": "m0.b3_30.361765760790703", "trainable": true, "activation": "relu"}, "inbound_nodes": [[["m0.b3_3.bn20.4570191604631054", 0, 0, {}]]]}, {"name": "m0.b1_30.5440137629879239", "class_name": "Activation", "config": {"name": "m0.b1_30.5440137629879239", "trainable": true, "activation": "relu"}, "inbound_nodes": [[["m0.b1_3.bn20.1363036050851012", 0, 0, {}]]]}, {"name": "m0.b3_3.conv20.21523362808782176_pad", "class_name": "ZeroPadding2D", "config": {"name": "m0.b3_3.conv20.21523362808782176_pad", "trainable": true, "padding": [[1, 1], [1, 1]], "data_format": "channels_first"}, "inbound_nodes": [[["m0.b3_30.361765760790703", 0, 0, {}]]]}, {"name": "m0.b1_3.conv20.5505324231429299_pad", "class_name": "ZeroPadding2D", "config": {"name": "m0.b1_3.conv20.5505324231429299_pad", "trainable": true, "padding": [[1, 1], [1, 1]], "data_format": "channels_first"}, "inbound_nodes": [[["m0.b1_30.5440137629879239", 0, 0, {}]]]}, {"name": "m0.b3_3.conv20.21523362808782176", "class_name": "Conv2D", "config": {"name": "m0.b3_3.conv20.21523362808782176", "trainable": true, "filters": 64, "kernel_size": [3, 3], "strides": [1, 1], "padding": "valid", "data_format": "channels_first", "dilation_rate": [1, 1], "activation": "linear", "use_bias": false, "kernel_initializer": {"class_name": "Zeros", "config": {}}, "bias_initializer": {"class_name": "Zeros", "config": {}}, "kernel_regularizer": null, "bias_regularizer": null, "activity_regularizer": null, "kernel_constraint": null, "bias_constraint": null}, "inbound_nodes": [[["m0.b3_3.conv20.21523362808782176_pad", 0, 0, {}]]]}, {"name": "m0.b1_3.conv20.5505324231429299", "class_name": "Conv2D", "config": {"name": "m0.b1_3.conv20.5505324231429299", "trainable": true, "filters": 64, "kernel_size": [3, 3], "strides": [1, 1], "padding": "valid", "data_format": "channels_first", "dilation_rate": [1, 1], "activation": "linear", "use_bias": false, "kernel_initializer": {"class_name": "Zeros", "config": {}}, "bias_initializer": {"class_name": "Zeros", "config": {}}, "kernel_regularizer": null, "bias_regularizer": null, "activity_regularizer": null, "kernel_constraint": null, "bias_constraint": null}, "inbound_nodes": [[["m0.b1_3.conv20.5505324231429299_pad", 0, 0, {}]]]}, {"name": "m0.b3_3.bn30.07539553369470231", "class_name": "BatchNormalization", "config": {"name": "m0.b3_3.bn30.07539553369470231", "trainable": true, "axis": 1, "momentum": 1.0, "epsilon": 1e-05, "center": true, "scale": true, "beta_initializer": {"class_name": "Zeros", "config": {}}, "gamma_initializer": {"class_name": "Ones", "config": {}}, "moving_mean_initializer": {"class_name": "Zeros", "config": {}}, "moving_variance_initializer": {"class_name": "Ones", "config": {}}, "beta_regularizer": null, "gamma_regularizer": null, "beta_constraint": null, "gamma_constraint": null}, "inbound_nodes": [[["m0.b3_3.conv20.21523362808782176", 0, 0, {}]]]}, {"name": "m0.b1_3.bn30.8612763744067109", "class_name": "BatchNormalization", "config": {"name": "m0.b1_3.bn30.8612763744067109", "trainable": true, "axis": 1, "momentum": 1.0, "epsilon": 1e-05, "center": true, "scale": true, "beta_initializer": {"class_name": "Zeros", "config": {}}, "gamma_initializer": {"class_name": "Ones", "config": {}}, "moving_mean_initializer": {"class_name": "Zeros", "config": {}}, "moving_variance_initializer": {"class_name": "Ones", "config": {}}, "beta_regularizer": null, "gamma_regularizer": null, "beta_constraint": null, "gamma_constraint": null}, "inbound_nodes": [[["m0.b1_3.conv20.5505324231429299", 0, 0, {}]]]}, {"name": "m0.b3_30.377155472000124", "class_name": "Activation", "config": {"name": "m0.b3_30.377155472000124", "trainable": true, "activation": "relu"}, "inbound_nodes": [[["m0.b3_3.bn30.07539553369470231", 0, 0, {}]]]}, {"name": "m0.b1_30.07238663874165108", "class_name": "Activation", "config": {"name": "m0.b1_30.07238663874165108", "trainable": true, "activation": "relu"}, "inbound_nodes": [[["m0.b1_3.bn30.8612763744067109", 0, 0, {}]]]}, {"name": "m0.b3_3.conv30.2309391331743439_pad", "class_name": "ZeroPadding2D", "config": {"name": "m0.b3_3.conv30.2309391331743439_pad", "trainable": true, "padding": [[1, 1], [1, 1]], "data_format": "channels_first"}, "inbound_nodes": [[["m0.b3_30.377155472000124", 0, 0, {}]]]}, {"name": "m0.b1_3.conv30.632067904742886_pad", "class_name": "ZeroPadding2D", "config": {"name": "m0.b1_3.conv30.632067904742886_pad", "trainable": true, "padding": [[1, 1], [1, 1]], "data_format": "channels_first"}, "inbound_nodes": [[["m0.b1_30.07238663874165108", 0, 0, {}]]]}, {"name": "m0.b3_3.conv30.2309391331743439", "class_name": "Conv2D", "config": {"name": "m0.b3_3.conv30.2309391331743439", "trainable": true, "filters": 64, "kernel_size": [3, 3], "strides": [1, 1], "padding": "valid", "data_format": "channels_first", "dilation_rate": [1, 1], "activation": "linear", "use_bias": false, "kernel_initializer": {"class_name": "Zeros", "config": {}}, "bias_initializer": {"class_name": "Zeros", "config": {}}, "kernel_regularizer": null, "bias_regularizer": null, "activity_regularizer": null, "kernel_constraint": null, "bias_constraint": null}, "inbound_nodes": [[["m0.b3_3.conv30.2309391331743439_pad", 0, 0, {}]]]}, {"name": "m0.b1_3.conv30.632067904742886", "class_name": "Conv2D", "config": {"name": "m0.b1_3.conv30.632067904742886", "trainable": true, "filters": 64, "kernel_size": [3, 3], "strides": [1, 1], "padding": "valid", "data_format": "channels_first", "dilation_rate": [1, 1], "activation": "linear", "use_bias": false, "kernel_initializer": {"class_name": "Zeros", "config": {}}, "bias_initializer": {"class_name": "Zeros", "config": {}}, "kernel_regularizer": null, "bias_regularizer": null, "activity_regularizer": null, "kernel_constraint": null, "bias_constraint": null}, "inbound_nodes": [[["m0.b1_3.conv30.632067904742886_pad", 0, 0, {}]]]}, {"name": "m0.b3_30.7046907554574516", "class_name": "Concatenate", "config": {"name": "m0.b3_30.7046907554574516", "trainable": true, "axis": 1}, "inbound_nodes": [[["m0.b3_3.conv10.43832320206680897", 0, 0, {}], ["m0.b3_3.conv20.21523362808782176", 0, 0, {}], ["m0.b3_3.conv30.2309391331743439", 0, 0, {}]]]}, {"name": "m0.b1_30.36465971535202557", "class_name": "Concatenate", "config": {"name": "m0.b1_30.36465971535202557", "trainable": true, "axis": 1}, "inbound_nodes": [[["m0.b1_3.conv10.3717468419438804", 0, 0, {}], ["m0.b1_3.conv20.5505324231429299", 0, 0, {}], ["m0.b1_3.conv30.632067904742886", 0, 0, {}]]]}, {"name": "m0.b3_30.23458415842303126", "class_name": "Add", "config": {"name": "m0.b3_30.23458415842303126", "trainable": true}, "inbound_nodes": [[["m0.b3_30.7046907554574516", 0, 0, {}], ["m00.7468237232450605", 0, 0, {}]]]}, {"name": "m0.b1_30.3450639405260031", "class_name": "Add", "config": {"name": "m0.b1_30.3450639405260031", "trainable": true}, "inbound_nodes": [[["m0.b1_30.36465971535202557", 0, 0, {}], ["m0.b2_40.3942045568233937", 0, 0, {}]]]}, {"name": "m00.5896598445840981", "class_name": "UpSampling2D", "config": {"name": "m00.5896598445840981", "trainable": true, "size": [2.0, 2.0], "data_format": "channels_first"}, "inbound_nodes": [[["m0.b3_30.23458415842303126", 0, 0, {}]]]}, {"name": "m00.7490027044741415", "class_name": "Add", "config": {"name": "m00.7490027044741415", "trainable": true}, "inbound_nodes": [[["m0.b1_30.3450639405260031", 0, 0, {}], ["m00.5896598445840981", 0, 0, {}]]]}, {"name": "m0.b3_4.bn10.6221456942446555", "class_name": "BatchNormalization", "config": {"name": "m0.b3_4.bn10.6221456942446555", "trainable": true, "axis": 1, "momentum": 1.0, "epsilon": 1e-05, "center": true, "scale": true, "beta_initializer": {"class_name": "Zeros", "config": {}}, "gamma_initializer": {"class_name": "Ones", "config": {}}, "moving_mean_initializer": {"class_name": "Zeros", "config": {}}, "moving_variance_initializer": {"class_name": "Ones", "config": {}}, "beta_regularizer": null, "gamma_regularizer": null, "beta_constraint": null, "gamma_constraint": null}, "inbound_nodes": [[["m00.7490027044741415", 0, 0, {}]]]}, {"name": "m0.b1_4.bn10.6377270046516038", "class_name": "BatchNormalization", "config": {"name": "m0.b1_4.bn10.6377270046516038", "trainable": true, "axis": 1, "momentum": 1.0, "epsilon": 1e-05, "center": true, "scale": true, "beta_initializer": {"class_name": "Zeros", "config": {}}, "gamma_initializer": {"class_name": "Ones", "config": {}}, "moving_mean_initializer": {"class_name": "Zeros", "config": {}}, "moving_variance_initializer": {"class_name": "Ones", "config": {}}, "beta_regularizer": null, "gamma_regularizer": null, "beta_constraint": null, "gamma_constraint": null}, "inbound_nodes": [[["conv40.3442247930402429", 0, 0, {}]]]}, {"name": "m0.b3_40.49714350009758224", "class_name": "Activation", "config": {"name": "m0.b3_40.49714350009758224", "trainable": true, "activation": "relu"}, "inbound_nodes": [[["m0.b3_4.bn10.6221456942446555", 0, 0, {}]]]}, {"name": "m0.b1_40.5872391290272022", "class_name": "Activation", "config": {"name": "m0.b1_40.5872391290272022", "trainable": true, "activation": "relu"}, "inbound_nodes": [[["m0.b1_4.bn10.6377270046516038", 0, 0, {}]]]}, {"name": "m0.b3_4.conv10.1935104823835201_pad", "class_name": "ZeroPadding2D", "config": {"name": "m0.b3_4.conv10.1935104823835201_pad", "trainable": true, "padding": [[1, 1], [1, 1]], "data_format": "channels_first"}, "inbound_nodes": [[["m0.b3_40.49714350009758224", 0, 0, {}]]]}, {"name": "m0.b1_4.conv10.9074981605827326_pad", "class_name": "ZeroPadding2D", "config": {"name": "m0.b1_4.conv10.9074981605827326_pad", "trainable": true, "padding": [[1, 1], [1, 1]], "data_format": "channels_first"}, "inbound_nodes": [[["m0.b1_40.5872391290272022", 0, 0, {}]]]}, {"name": "m0.b3_4.conv10.1935104823835201", "class_name": "Conv2D", "config": {"name": "m0.b3_4.conv10.1935104823835201", "trainable": true, "filters": 128, "kernel_size": [3, 3], "strides": [1, 1], "padding": "valid", "data_format": "channels_first", "dilation_rate": [1, 1], "activation": "linear", "use_bias": false, "kernel_initializer": {"class_name": "Zeros", "config": {}}, "bias_initializer": {"class_name": "Zeros", "config": {}}, "kernel_regularizer": null, "bias_regularizer": null, "activity_regularizer": null, "kernel_constraint": null, "bias_constraint": null}, "inbound_nodes": [[["m0.b3_4.conv10.1935104823835201_pad", 0, 0, {}]]]}, {"name": "m0.b1_4.conv10.9074981605827326", "class_name": "Conv2D", "config": {"name": "m0.b1_4.conv10.9074981605827326", "trainable": true, "filters": 128, "kernel_size": [3, 3], "strides": [1, 1], "padding": "valid", "data_format": "channels_first", "dilation_rate": [1, 1], "activation": "linear", "use_bias": false, "kernel_initializer": {"class_name": "Zeros", "config": {}}, "bias_initializer": {"class_name": "Zeros", "config": {}}, "kernel_regularizer": null, "bias_regularizer": null, "activity_regularizer": null, "kernel_constraint": null, "bias_constraint": null}, "inbound_nodes": [[["m0.b1_4.conv10.9074981605827326_pad", 0, 0, {}]]]}, {"name": "m0.b3_4.bn20.9718841389125337", "class_name": "BatchNormalization", "config": {"name": "m0.b3_4.bn20.9718841389125337", "trainable": true, "axis": 1, "momentum": 1.0, "epsilon": 1e-05, "center": true, "scale": true, "beta_initializer": {"class_name": "Zeros", "config": {}}, "gamma_initializer": {"class_name": "Ones", "config": {}}, "moving_mean_initializer": {"class_name": "Zeros", "config": {}}, "moving_variance_initializer": {"class_name": "Ones", "config": {}}, "beta_regularizer": null, "gamma_regularizer": null, "beta_constraint": null, "gamma_constraint": null}, "inbound_nodes": [[["m0.b3_4.conv10.1935104823835201", 0, 0, {}]]]}, {"name": "m0.b1_4.bn20.5537016641720436", "class_name": "BatchNormalization", "config": {"name": "m0.b1_4.bn20.5537016641720436", "trainable": true, "axis": 1, "momentum": 1.0, "epsilon": 1e-05, "center": true, "scale": true, "beta_initializer": {"class_name": "Zeros", "config": {}}, "gamma_initializer": {"class_name": "Ones", "config": {}}, "moving_mean_initializer": {"class_name": "Zeros", "config": {}}, "moving_variance_initializer": {"class_name": "Ones", "config": {}}, "beta_regularizer": null, "gamma_regularizer": null, "beta_constraint": null, "gamma_constraint": null}, "inbound_nodes": [[["m0.b1_4.conv10.9074981605827326", 0, 0, {}]]]}, {"name": "m0.b3_40.01407646814354857", "class_name": "Activation", "config": {"name": "m0.b3_40.01407646814354857", "trainable": true, "activation": "relu"}, "inbound_nodes": [[["m0.b3_4.bn20.9718841389125337", 0, 0, {}]]]}, {"name": "m0.b1_40.5217376423664052", "class_name": "Activation", "config": {"name": "m0.b1_40.5217376423664052", "trainable": true, "activation": "relu"}, "inbound_nodes": [[["m0.b1_4.bn20.5537016641720436", 0, 0, {}]]]}, {"name": "m0.b3_4.conv20.9990891696761612_pad", "class_name": "ZeroPadding2D", "config": {"name": "m0.b3_4.conv20.9990891696761612_pad", "trainable": true, "padding": [[1, 1], [1, 1]], "data_format": "channels_first"}, "inbound_nodes": [[["m0.b3_40.01407646814354857", 0, 0, {}]]]}, {"name": "m0.b1_4.conv20.058812841311680075_pad", "class_name": "ZeroPadding2D", "config": {"name": "m0.b1_4.conv20.058812841311680075_pad", "trainable": true, "padding": [[1, 1], [1, 1]], "data_format": "channels_first"}, "inbound_nodes": [[["m0.b1_40.5217376423664052", 0, 0, {}]]]}, {"name": "m0.b3_4.conv20.9990891696761612", "class_name": "Conv2D", "config": {"name": "m0.b3_4.conv20.9990891696761612", "trainable": true, "filters": 64, "kernel_size": [3, 3], "strides": [1, 1], "padding": "valid", "data_format": "channels_first", "dilation_rate": [1, 1], "activation": "linear", "use_bias": false, "kernel_initializer": {"class_name": "Zeros", "config": {}}, "bias_initializer": {"class_name": "Zeros", "config": {}}, "kernel_regularizer": null, "bias_regularizer": null, "activity_regularizer": null, "kernel_constraint": null, "bias_constraint": null}, "inbound_nodes": [[["m0.b3_4.conv20.9990891696761612_pad", 0, 0, {}]]]}, {"name": "m0.b1_4.conv20.058812841311680075", "class_name": "Conv2D", "config": {"name": "m0.b1_4.conv20.058812841311680075", "trainable": true, "filters": 64, "kernel_size": [3, 3], "strides": [1, 1], "padding": "valid", "data_format": "channels_first", "dilation_rate": [1, 1], "activation": "linear", "use_bias": false, "kernel_initializer": {"class_name": "Zeros", "config": {}}, "bias_initializer": {"class_name": "Zeros", "config": {}}, "kernel_regularizer": null, "bias_regularizer": null, "activity_regularizer": null, "kernel_constraint": null, "bias_constraint": null}, "inbound_nodes": [[["m0.b1_4.conv20.058812841311680075_pad", 0, 0, {}]]]}, {"name": "m0.b3_4.bn30.549460030352688", "class_name": "BatchNormalization", "config": {"name": "m0.b3_4.bn30.549460030352688", "trainable": true, "axis": 1, "momentum": 1.0, "epsilon": 1e-05, "center": true, "scale": true, "beta_initializer": {"class_name": "Zeros", "config": {}}, "gamma_initializer": {"class_name": "Ones", "config": {}}, "moving_mean_initializer": {"class_name": "Zeros", "config": {}}, "moving_variance_initializer": {"class_name": "Ones", "config": {}}, "beta_regularizer": null, "gamma_regularizer": null, "beta_constraint": null, "gamma_constraint": null}, "inbound_nodes": [[["m0.b3_4.conv20.9990891696761612", 0, 0, {}]]]}, {"name": "m0.b1_4.bn30.5797821729705199", "class_name": "BatchNormalization", "config": {"name": "m0.b1_4.bn30.5797821729705199", "trainable": true, "axis": 1, "momentum": 1.0, "epsilon": 1e-05, "center": true, "scale": true, "beta_initializer": {"class_name": "Zeros", "config": {}}, "gamma_initializer": {"class_name": "Ones", "config": {}}, "moving_mean_initializer": {"class_name": "Zeros", "config": {}}, "moving_variance_initializer": {"class_name": "Ones", "config": {}}, "beta_regularizer": null, "gamma_regularizer": null, "beta_constraint": null, "gamma_constraint": null}, "inbound_nodes": [[["m0.b1_4.conv20.058812841311680075", 0, 0, {}]]]}, {"name": "m0.b3_40.07454241728541844", "class_name": "Activation", "config": {"name": "m0.b3_40.07454241728541844", "trainable": true, "activation": "relu"}, "inbound_nodes": [[["m0.b3_4.bn30.549460030352688", 0, 0, {}]]]}, {"name": "m0.b1_40.8120401763072714", "class_name": "Activation", "config": {"name": "m0.b1_40.8120401763072714", "trainable": true, "activation": "relu"}, "inbound_nodes": [[["m0.b1_4.bn30.5797821729705199", 0, 0, {}]]]}, {"name": "m0.b3_4.conv30.39396637632626796_pad", "class_name": "ZeroPadding2D", "config": {"name": "m0.b3_4.conv30.39396637632626796_pad", "trainable": true, "padding": [[1, 1], [1, 1]], "data_format": "channels_first"}, "inbound_nodes": [[["m0.b3_40.07454241728541844", 0, 0, {}]]]}, {"name": "m0.b1_4.conv30.08668915271686517_pad", "class_name": "ZeroPadding2D", "config": {"name": "m0.b1_4.conv30.08668915271686517_pad", "trainable": true, "padding": [[1, 1], [1, 1]], "data_format": "channels_first"}, "inbound_nodes": [[["m0.b1_40.8120401763072714", 0, 0, {}]]]}, {"name": "m0.b3_4.conv30.39396637632626796", "class_name": "Conv2D", "config": {"name": "m0.b3_4.conv30.39396637632626796", "trainable": true, "filters": 64, "kernel_size": [3, 3], "strides": [1, 1], "padding": "valid", "data_format": "channels_first", "dilation_rate": [1, 1], "activation": "linear", "use_bias": false, "kernel_initializer": {"class_name": "Zeros", "config": {}}, "bias_initializer": {"class_name": "Zeros", "config": {}}, "kernel_regularizer": null, "bias_regularizer": null, "activity_regularizer": null, "kernel_constraint": null, "bias_constraint": null}, "inbound_nodes": [[["m0.b3_4.conv30.39396637632626796_pad", 0, 0, {}]]]}, {"name": "m0.b1_4.conv30.08668915271686517", "class_name": "Conv2D", "config": {"name": "m0.b1_4.conv30.08668915271686517", "trainable": true, "filters": 64, "kernel_size": [3, 3], "strides": [1, 1], "padding": "valid", "data_format": "channels_first", "dilation_rate": [1, 1], "activation": "linear", "use_bias": false, "kernel_initializer": {"class_name": "Zeros", "config": {}}, "bias_initializer": {"class_name": "Zeros", "config": {}}, "kernel_regularizer": null, "bias_regularizer": null, "activity_regularizer": null, "kernel_constraint": null, "bias_constraint": null}, "inbound_nodes": [[["m0.b1_4.conv30.08668915271686517_pad", 0, 0, {}]]]}, {"name": "m0.b3_40.7294809214304263", "class_name": "Concatenate", "config": {"name": "m0.b3_40.7294809214304263", "trainable": true, "axis": 1}, "inbound_nodes": [[["m0.b3_4.conv10.1935104823835201", 0, 0, {}], ["m0.b3_4.conv20.9990891696761612", 0, 0, {}], ["m0.b3_4.conv30.39396637632626796", 0, 0, {}]]]}, {"name": "m0.b1_40.4252641157325745", "class_name": "Concatenate", "config": {"name": "m0.b1_40.4252641157325745", "trainable": true, "axis": 1}, "inbound_nodes": [[["m0.b1_4.conv10.9074981605827326", 0, 0, {}], ["m0.b1_4.conv20.058812841311680075", 0, 0, {}], ["m0.b1_4.conv30.08668915271686517", 0, 0, {}]]]}, {"name": "m0.b3_40.31377719302098483", "class_name": "Add", "config": {"name": "m0.b3_40.31377719302098483", "trainable": true}, "inbound_nodes": [[["m0.b3_40.7294809214304263", 0, 0, {}], ["m00.7490027044741415", 0, 0, {}]]]}, {"name": "m0.b1_40.27238713512039625", "class_name": "Add", "config": {"name": "m0.b1_40.27238713512039625", "trainable": true}, "inbound_nodes": [[["m0.b1_40.4252641157325745", 0, 0, {}], ["conv40.3442247930402429", 0, 0, {}]]]}, {"name": "m00.11357317918920706", "class_name": "UpSampling2D", "config": {"name": "m00.11357317918920706", "trainable": true, "size": [2.0, 2.0], "data_format": "channels_first"}, "inbound_nodes": [[["m0.b3_40.31377719302098483", 0, 0, {}]]]}, {"name": "m00.6570997848161705", "class_name": "Add", "config": {"name": "m00.6570997848161705", "trainable": true}, "inbound_nodes": [[["m0.b1_40.27238713512039625", 0, 0, {}], ["m00.11357317918920706", 0, 0, {}]]]}, {"name": "top_m_0.bn10.23495565200767776", "class_name": "BatchNormalization", "config": {"name": "top_m_0.bn10.23495565200767776", "trainable": true, "axis": 1, "momentum": 1.0, "epsilon": 1e-05, "center": true, "scale": true, "beta_initializer": {"class_name": "Zeros", "config": {}}, "gamma_initializer": {"class_name": "Ones", "config": {}}, "moving_mean_initializer": {"class_name": "Zeros", "config": {}}, "moving_variance_initializer": {"class_name": "Ones", "config": {}}, "beta_regularizer": null, "gamma_regularizer": null, "beta_constraint": null, "gamma_constraint": null}, "inbound_nodes": [[["m00.6570997848161705", 0, 0, {}]]]}, {"name": "top_m_00.8989372816842228", "class_name": "Activation", "config": {"name": "top_m_00.8989372816842228", "trainable": true, "activation": "relu"}, "inbound_nodes": [[["top_m_0.bn10.23495565200767776", 0, 0, {}]]]}, {"name": "top_m_0.conv10.2943030405828715_pad", "class_name": "ZeroPadding2D", "config": {"name": "top_m_0.conv10.2943030405828715_pad", "trainable": true, "padding": [[1, 1], [1, 1]], "data_format": "channels_first"}, "inbound_nodes": [[["top_m_00.8989372816842228", 0, 0, {}]]]}, {"name": "top_m_0.conv10.2943030405828715", "class_name": "Conv2D", "config": {"name": "top_m_0.conv10.2943030405828715", "trainable": true, "filters": 128, "kernel_size": [3, 3], "strides": [1, 1], "padding": "valid", "data_format": "channels_first", "dilation_rate": [1, 1], "activation": "linear", "use_bias": false, "kernel_initializer": {"class_name": "Zeros", "config": {}}, "bias_initializer": {"class_name": "Zeros", "config": {}}, "kernel_regularizer": null, "bias_regularizer": null, "activity_regularizer": null, "kernel_constraint": null, "bias_constraint": null}, "inbound_nodes": [[["top_m_0.conv10.2943030405828715_pad", 0, 0, {}]]]}, {"name": "top_m_0.bn20.031218307995739436", "class_name": "BatchNormalization", "config": {"name": "top_m_0.bn20.031218307995739436", "trainable": true, "axis": 1, "momentum": 1.0, "epsilon": 1e-05, "center": true, "scale": true, "beta_initializer": {"class_name": "Zeros", "config": {}}, "gamma_initializer": {"class_name": "Ones", "config": {}}, "moving_mean_initializer": {"class_name": "Zeros", "config": {}}, "moving_variance_initializer": {"class_name": "Ones", "config": {}}, "beta_regularizer": null, "gamma_regularizer": null, "beta_constraint": null, "gamma_constraint": null}, "inbound_nodes": [[["top_m_0.conv10.2943030405828715", 0, 0, {}]]]}, {"name": "top_m_00.3680287169819786", "class_name": "Activation", "config": {"name": "top_m_00.3680287169819786", "trainable": true, "activation": "relu"}, "inbound_nodes": [[["top_m_0.bn20.031218307995739436", 0, 0, {}]]]}, {"name": "top_m_0.conv20.30442385331909116_pad", "class_name": "ZeroPadding2D", "config": {"name": "top_m_0.conv20.30442385331909116_pad", "trainable": true, "padding": [[1, 1], [1, 1]], "data_format": "channels_first"}, "inbound_nodes": [[["top_m_00.3680287169819786", 0, 0, {}]]]}, {"name": "top_m_0.conv20.30442385331909116", "class_name": "Conv2D", "config": {"name": "top_m_0.conv20.30442385331909116", "trainable": true, "filters": 64, "kernel_size": [3, 3], "strides": [1, 1], "padding": "valid", "data_format": "channels_first", "dilation_rate": [1, 1], "activation": "linear", "use_bias": false, "kernel_initializer": {"class_name": "Zeros", "config": {}}, "bias_initializer": {"class_name": "Zeros", "config": {}}, "kernel_regularizer": null, "bias_regularizer": null, "activity_regularizer": null, "kernel_constraint": null, "bias_constraint": null}, "inbound_nodes": [[["top_m_0.conv20.30442385331909116_pad", 0, 0, {}]]]}, {"name": "top_m_0.bn30.6572252788207449", "class_name": "BatchNormalization", "config": {"name": "top_m_0.bn30.6572252788207449", "trainable": true, "axis": 1, "momentum": 1.0, "epsilon": 1e-05, "center": true, "scale": true, "beta_initializer": {"class_name": "Zeros", "config": {}}, "gamma_initializer": {"class_name": "Ones", "config": {}}, "moving_mean_initializer": {"class_name": "Zeros", "config": {}}, "moving_variance_initializer": {"class_name": "Ones", "config": {}}, "beta_regularizer": null, "gamma_regularizer": null, "beta_constraint": null, "gamma_constraint": null}, "inbound_nodes": [[["top_m_0.conv20.30442385331909116", 0, 0, {}]]]}, {"name": "top_m_00.6648511611870029", "class_name": "Activation", "config": {"name": "top_m_00.6648511611870029", "trainable": true, "activation": "relu"}, "inbound_nodes": [[["top_m_0.bn30.6572252788207449", 0, 0, {}]]]}, {"name": "top_m_0.conv30.3887027228534773_pad", "class_name": "ZeroPadding2D", "config": {"name": "top_m_0.conv30.3887027228534773_pad", "trainable": true, "padding": [[1, 1], [1, 1]], "data_format": "channels_first"}, "inbound_nodes": [[["top_m_00.6648511611870029", 0, 0, {}]]]}, {"name": "top_m_0.conv30.3887027228534773", "class_name": "Conv2D", "config": {"name": "top_m_0.conv30.3887027228534773", "trainable": true, "filters": 64, "kernel_size": [3, 3], "strides": [1, 1], "padding": "valid", "data_format": "channels_first", "dilation_rate": [1, 1], "activation": "linear", "use_bias": false, "kernel_initializer": {"class_name": "Zeros", "config": {}}, "bias_initializer": {"class_name": "Zeros", "config": {}}, "kernel_regularizer": null, "bias_regularizer": null, "activity_regularizer": null, "kernel_constraint": null, "bias_constraint": null}, "inbound_nodes": [[["top_m_0.conv30.3887027228534773_pad", 0, 0, {}]]]}, {"name": "top_m_00.34387816216134737", "class_name": "Concatenate", "config": {"name": "top_m_00.34387816216134737", "trainable": true, "axis": 1}, "inbound_nodes": [[["top_m_0.conv10.2943030405828715", 0, 0, {}], ["top_m_0.conv20.30442385331909116", 0, 0, {}], ["top_m_0.conv30.3887027228534773", 0, 0, {}]]]}, {"name": "top_m_00.039301891295681735", "class_name": "Add", "config": {"name": "top_m_00.039301891295681735", "trainable": true}, "inbound_nodes": [[["top_m_00.34387816216134737", 0, 0, {}], ["m00.6570997848161705", 0, 0, {}]]]}, {"name": "conv_last00.37681145729206755", "class_name": "Conv2D", "config": {"name": "conv_last00.37681145729206755", "trainable": true, "filters": 256, "kernel_size": [1, 1], "strides": [1, 1], "padding": "valid", "data_format": "channels_first", "dilation_rate": [1, 1], "activation": "linear", "use_bias": true, "kernel_initializer": {"class_name": "Zeros", "config": {}}, "bias_initializer": {"class_name": "Zeros", "config": {}}, "kernel_regularizer": null, "bias_regularizer": null, "activity_regularizer": null, "kernel_constraint": null, "bias_constraint": null}, "inbound_nodes": [[["top_m_00.039301891295681735", 0, 0, {}]]]}, {"name": "bn_end00.6283543455604733", "class_name": "BatchNormalization", "config": {"name": "bn_end00.6283543455604733", "trainable": true, "axis": 1, "momentum": 1.0, "epsilon": 1e-05, "center": true, "scale": true, "beta_initializer": {"class_name": "Zeros", "config": {}}, "gamma_initializer": {"class_name": "Ones", "config": {}}, "moving_mean_initializer": {"class_name": "Zeros", "config": {}}, "moving_variance_initializer": {"class_name": "Ones", "config": {}}, "beta_regularizer": null, "gamma_regularizer": null, "beta_constraint": null, "gamma_constraint": null}, "inbound_nodes": [[["conv_last00.37681145729206755", 0, 0, {}]]]}, {"name": "0.6044032764332983", "class_name": "Activation", "config": {"name": "0.6044032764332983", "trainable": true, "activation": "relu"}, "inbound_nodes": [[["bn_end00.6283543455604733", 0, 0, {}]]]}, {"name": "l00.5648449233032341", "class_name": "Conv2D", "config": {"name": "l00.5648449233032341", "trainable": true, "filters": 68, "kernel_size": [1, 1], "strides": [1, 1], "padding": "valid", "data_format": "channels_first", "dilation_rate": [1, 1], "activation": "linear", "use_bias": true, "kernel_initializer": {"class_name": "Zeros", "config": {}}, "bias_initializer": {"class_name": "Zeros", "config": {}}, "kernel_regularizer": null, "bias_regularizer": null, "activity_regularizer": null, "kernel_constraint": null, "bias_constraint": null}, "inbound_nodes": [[["0.6044032764332983", 0, 0, {}]]]}, {"name": "bl00.27959727901419185", "class_name": "Conv2D", "config": {"name": "bl00.27959727901419185", "trainable": true, "filters": 256, "kernel_size": [1, 1], "strides": [1, 1], "padding": "valid", "data_format": "channels_first", "dilation_rate": [1, 1], "activation": "linear", "use_bias": true, "kernel_initializer": {"class_name": "Zeros", "config": {}}, "bias_initializer": {"class_name": "Zeros", "config": {}}, "kernel_regularizer": null, "bias_regularizer": null, "activity_regularizer": null, "kernel_constraint": null, "bias_constraint": null}, "inbound_nodes": [[["0.6044032764332983", 0, 0, {}]]]}, {"name": "0.37493988471940787", "class_name": "Add", "config": {"name": "0.37493988471940787", "trainable": true}, "inbound_nodes": [[["conv40.3442247930402429", 0, 0, {}], ["bl00.27959727901419185", 0, 0, {}]]]}, {"name": "al00.7426782437060996", "class_name": "Conv2D", "config": {"name": "al00.7426782437060996", "trainable": true, "filters": 256, "kernel_size": [1, 1], "strides": [1, 1], "padding": "valid", "data_format": "channels_first", "dilation_rate": [1, 1], "activation": "linear", "use_bias": true, "kernel_initializer": {"class_name": "Zeros", "config": {}}, "bias_initializer": {"class_name": "Zeros", "config": {}}, "kernel_regularizer": null, "bias_regularizer": null, "activity_regularizer": null, "kernel_constraint": null, "bias_constraint": null}, "inbound_nodes": [[["l00.5648449233032341", 0, 0, {}]]]}, {"name": "0.8410399930592076", "class_name": "Add", "config": {"name": "0.8410399930592076", "trainable": true}, "inbound_nodes": [[["0.37493988471940787", 0, 0, {}], ["al00.7426782437060996", 0, 0, {}]]]}, {"name": "m10.12637216772282978", "class_name": "ZeroPadding2D", "config": {"name": "m10.12637216772282978", "trainable": true, "padding": [[0, 0], [0, 0]], "data_format": "channels_first"}, "inbound_nodes": [[["0.8410399930592076", 0, 0, {}]]]}, {"name": "m10.7672096145092462_pad", "class_name": "ZeroPadding2D", "config": {"name": "m10.7672096145092462_pad", "trainable": true, "padding": [[0, 0], [0, 0]], "data_format": "channels_first"}, "inbound_nodes": [[["m10.12637216772282978", 0, 0, {}]]]}, {"name": "m10.7672096145092462", "class_name": "AveragePooling2D", "config": {"name": "m10.7672096145092462", "trainable": true, "pool_size": [2, 2], "padding": "valid", "strides": [2, 2], "data_format": "channels_first"}, "inbound_nodes": [[["m10.7672096145092462_pad", 0, 0, {}]]]}, {"name": "m1.b2_4.bn10.5198576306547935", "class_name": "BatchNormalization", "config": {"name": "m1.b2_4.bn10.5198576306547935", "trainable": true, "axis": 1, "momentum": 1.0, "epsilon": 1e-05, "center": true, "scale": true, "beta_initializer": {"class_name": "Zeros", "config": {}}, "gamma_initializer": {"class_name": "Ones", "config": {}}, "moving_mean_initializer": {"class_name": "Zeros", "config": {}}, "moving_variance_initializer": {"class_name": "Ones", "config": {}}, "beta_regularizer": null, "gamma_regularizer": null, "beta_constraint": null, "gamma_constraint": null}, "inbound_nodes": [[["m10.7672096145092462", 0, 0, {}]]]}, {"name": "m1.b2_40.10918503251897527", "class_name": "Activation", "config": {"name": "m1.b2_40.10918503251897527", "trainable": true, "activation": "relu"}, "inbound_nodes": [[["m1.b2_4.bn10.5198576306547935", 0, 0, {}]]]}, {"name": "m1.b2_4.conv10.9895092439748278_pad", "class_name": "ZeroPadding2D", "config": {"name": "m1.b2_4.conv10.9895092439748278_pad", "trainable": true, "padding": [[1, 1], [1, 1]], "data_format": "channels_first"}, "inbound_nodes": [[["m1.b2_40.10918503251897527", 0, 0, {}]]]}, {"name": "m1.b2_4.conv10.9895092439748278", "class_name": "Conv2D", "config": {"name": "m1.b2_4.conv10.9895092439748278", "trainable": true, "filters": 128, "kernel_size": [3, 3], "strides": [1, 1], "padding": "valid", "data_format": "channels_first", "dilation_rate": [1, 1], "activation": "linear", "use_bias": false, "kernel_initializer": {"class_name": "Zeros", "config": {}}, "bias_initializer": {"class_name": "Zeros", "config": {}}, "kernel_regularizer": null, "bias_regularizer": null, "activity_regularizer": null, "kernel_constraint": null, "bias_constraint": null}, "inbound_nodes": [[["m1.b2_4.conv10.9895092439748278_pad", 0, 0, {}]]]}, {"name": "m1.b2_4.bn20.08824911006046587", "class_name": "BatchNormalization", "config": {"name": "m1.b2_4.bn20.08824911006046587", "trainable": true, "axis": 1, "momentum": 1.0, "epsilon": 1e-05, "center": true, "scale": true, "beta_initializer": {"class_name": "Zeros", "config": {}}, "gamma_initializer": {"class_name": "Ones", "config": {}}, "moving_mean_initializer": {"class_name": "Zeros", "config": {}}, "moving_variance_initializer": {"class_name": "Ones", "config": {}}, "beta_regularizer": null, "gamma_regularizer": null, "beta_constraint": null, "gamma_constraint": null}, "inbound_nodes": [[["m1.b2_4.conv10.9895092439748278", 0, 0, {}]]]}, {"name": "m1.b2_40.3654805450391494", "class_name": "Activation", "config": {"name": "m1.b2_40.3654805450391494", "trainable": true, "activation": "relu"}, "inbound_nodes": [[["m1.b2_4.bn20.08824911006046587", 0, 0, {}]]]}, {"name": "m1.b2_4.conv20.9534235042475988_pad", "class_name": "ZeroPadding2D", "config": {"name": "m1.b2_4.conv20.9534235042475988_pad", "trainable": true, "padding": [[1, 1], [1, 1]], "data_format": "channels_first"}, "inbound_nodes": [[["m1.b2_40.3654805450391494", 0, 0, {}]]]}, {"name": "m1.b2_4.conv20.9534235042475988", "class_name": "Conv2D", "config": {"name": "m1.b2_4.conv20.9534235042475988", "trainable": true, "filters": 64, "kernel_size": [3, 3], "strides": [1, 1], "padding": "valid", "data_format": "channels_first", "dilation_rate": [1, 1], "activation": "linear", "use_bias": false, "kernel_initializer": {"class_name": "Zeros", "config": {}}, "bias_initializer": {"class_name": "Zeros", "config": {}}, "kernel_regularizer": null, "bias_regularizer": null, "activity_regularizer": null, "kernel_constraint": null, "bias_constraint": null}, "inbound_nodes": [[["m1.b2_4.conv20.9534235042475988_pad", 0, 0, {}]]]}, {"name": "m1.b2_4.bn30.7322157112513628", "class_name": "BatchNormalization", "config": {"name": "m1.b2_4.bn30.7322157112513628", "trainable": true, "axis": 1, "momentum": 1.0, "epsilon": 1e-05, "center": true, "scale": true, "beta_initializer": {"class_name": "Zeros", "config": {}}, "gamma_initializer": {"class_name": "Ones", "config": {}}, "moving_mean_initializer": {"class_name": "Zeros", "config": {}}, "moving_variance_initializer": {"class_name": "Ones", "config": {}}, "beta_regularizer": null, "gamma_regularizer": null, "beta_constraint": null, "gamma_constraint": null}, "inbound_nodes": [[["m1.b2_4.conv20.9534235042475988", 0, 0, {}]]]}, {"name": "m1.b2_40.5774016748463573", "class_name": "Activation", "config": {"name": "m1.b2_40.5774016748463573", "trainable": true, "activation": "relu"}, "inbound_nodes": [[["m1.b2_4.bn30.7322157112513628", 0, 0, {}]]]}, {"name": "m1.b2_4.conv30.44315634599414333_pad", "class_name": "ZeroPadding2D", "config": {"name": "m1.b2_4.conv30.44315634599414333_pad", "trainable": true, "padding": [[1, 1], [1, 1]], "data_format": "channels_first"}, "inbound_nodes": [[["m1.b2_40.5774016748463573", 0, 0, {}]]]}, {"name": "m1.b2_4.conv30.44315634599414333", "class_name": "Conv2D", "config": {"name": "m1.b2_4.conv30.44315634599414333", "trainable": true, "filters": 64, "kernel_size": [3, 3], "strides": [1, 1], "padding": "valid", "data_format": "channels_first", "dilation_rate": [1, 1], "activation": "linear", "use_bias": false, "kernel_initializer": {"class_name": "Zeros", "config": {}}, "bias_initializer": {"class_name": "Zeros", "config": {}}, "kernel_regularizer": null, "bias_regularizer": null, "activity_regularizer": null, "kernel_constraint": null, "bias_constraint": null}, "inbound_nodes": [[["m1.b2_4.conv30.44315634599414333_pad", 0, 0, {}]]]}, {"name": "m1.b2_40.16812393787014268", "class_name": "Concatenate", "config": {"name": "m1.b2_40.16812393787014268", "trainable": true, "axis": 1}, "inbound_nodes": [[["m1.b2_4.conv10.9895092439748278", 0, 0, {}], ["m1.b2_4.conv20.9534235042475988", 0, 0, {}], ["m1.b2_4.conv30.44315634599414333", 0, 0, {}]]]}, {"name": "m1.b2_40.973972798551986", "class_name": "Add", "config": {"name": "m1.b2_40.973972798551986", "trainable": true}, "inbound_nodes": [[["m1.b2_40.16812393787014268", 0, 0, {}], ["m10.7672096145092462", 0, 0, {}]]]}, {"name": "m10.2234950830771555", "class_name": "ZeroPadding2D", "config": {"name": "m10.2234950830771555", "trainable": true, "padding": [[0, 0], [0, 0]], "data_format": "channels_first"}, "inbound_nodes": [[["m1.b2_40.973972798551986", 0, 0, {}]]]}, {"name": "m10.04386843191221501_pad", "class_name": "ZeroPadding2D", "config": {"name": "m10.04386843191221501_pad", "trainable": true, "padding": [[0, 0], [0, 0]], "data_format": "channels_first"}, "inbound_nodes": [[["m10.2234950830771555", 0, 0, {}]]]}, {"name": "m10.04386843191221501", "class_name": "AveragePooling2D", "config": {"name": "m10.04386843191221501", "trainable": true, "pool_size": [2, 2], "padding": "valid", "strides": [2, 2], "data_format": "channels_first"}, "inbound_nodes": [[["m10.04386843191221501_pad", 0, 0, {}]]]}, {"name": "m1.b2_3.bn10.9935612642784796", "class_name": "BatchNormalization", "config": {"name": "m1.b2_3.bn10.9935612642784796", "trainable": true, "axis": 1, "momentum": 1.0, "epsilon": 1e-05, "center": true, "scale": true, "beta_initializer": {"class_name": "Zeros", "config": {}}, "gamma_initializer": {"class_name": "Ones", "config": {}}, "moving_mean_initializer": {"class_name": "Zeros", "config": {}}, "moving_variance_initializer": {"class_name": "Ones", "config": {}}, "beta_regularizer": null, "gamma_regularizer": null, "beta_constraint": null, "gamma_constraint": null}, "inbound_nodes": [[["m10.04386843191221501", 0, 0, {}]]]}, {"name": "m1.b2_30.8416717815884419", "class_name": "Activation", "config": {"name": "m1.b2_30.8416717815884419", "trainable": true, "activation": "relu"}, "inbound_nodes": [[["m1.b2_3.bn10.9935612642784796", 0, 0, {}]]]}, {"name": "m1.b2_3.conv10.5836777273738422_pad", "class_name": "ZeroPadding2D", "config": {"name": "m1.b2_3.conv10.5836777273738422_pad", "trainable": true, "padding": [[1, 1], [1, 1]], "data_format": "channels_first"}, "inbound_nodes": [[["m1.b2_30.8416717815884419", 0, 0, {}]]]}, {"name": "m1.b2_3.conv10.5836777273738422", "class_name": "Conv2D", "config": {"name": "m1.b2_3.conv10.5836777273738422", "trainable": true, "filters": 128, "kernel_size": [3, 3], "strides": [1, 1], "padding": "valid", "data_format": "channels_first", "dilation_rate": [1, 1], "activation": "linear", "use_bias": false, "kernel_initializer": {"class_name": "Zeros", "config": {}}, "bias_initializer": {"class_name": "Zeros", "config": {}}, "kernel_regularizer": null, "bias_regularizer": null, "activity_regularizer": null, "kernel_constraint": null, "bias_constraint": null}, "inbound_nodes": [[["m1.b2_3.conv10.5836777273738422_pad", 0, 0, {}]]]}, {"name": "m1.b2_3.bn20.3320047283535108", "class_name": "BatchNormalization", "config": {"name": "m1.b2_3.bn20.3320047283535108", "trainable": true, "axis": 1, "momentum": 1.0, "epsilon": 1e-05, "center": true, "scale": true, "beta_initializer": {"class_name": "Zeros", "config": {}}, "gamma_initializer": {"class_name": "Ones", "config": {}}, "moving_mean_initializer": {"class_name": "Zeros", "config": {}}, "moving_variance_initializer": {"class_name": "Ones", "config": {}}, "beta_regularizer": null, "gamma_regularizer": null, "beta_constraint": null, "gamma_constraint": null}, "inbound_nodes": [[["m1.b2_3.conv10.5836777273738422", 0, 0, {}]]]}, {"name": "m1.b2_30.2241273330913104", "class_name": "Activation", "config": {"name": "m1.b2_30.2241273330913104", "trainable": true, "activation": "relu"}, "inbound_nodes": [[["m1.b2_3.bn20.3320047283535108", 0, 0, {}]]]}, {"name": "m1.b2_3.conv20.989393431276273_pad", "class_name": "ZeroPadding2D", "config": {"name": "m1.b2_3.conv20.989393431276273_pad", "trainable": true, "padding": [[1, 1], [1, 1]], "data_format": "channels_first"}, "inbound_nodes": [[["m1.b2_30.2241273330913104", 0, 0, {}]]]}, {"name": "m1.b2_3.conv20.989393431276273", "class_name": "Conv2D", "config": {"name": "m1.b2_3.conv20.989393431276273", "trainable": true, "filters": 64, "kernel_size": [3, 3], "strides": [1, 1], "padding": "valid", "data_format": "channels_first", "dilation_rate": [1, 1], "activation": "linear", "use_bias": false, "kernel_initializer": {"class_name": "Zeros", "config": {}}, "bias_initializer": {"class_name": "Zeros", "config": {}}, "kernel_regularizer": null, "bias_regularizer": null, "activity_regularizer": null, "kernel_constraint": null, "bias_constraint": null}, "inbound_nodes": [[["m1.b2_3.conv20.989393431276273_pad", 0, 0, {}]]]}, {"name": "m1.b2_3.bn30.9105448386103543", "class_name": "BatchNormalization", "config": {"name": "m1.b2_3.bn30.9105448386103543", "trainable": true, "axis": 1, "momentum": 1.0, "epsilon": 1e-05, "center": true, "scale": true, "beta_initializer": {"class_name": "Zeros", "config": {}}, "gamma_initializer": {"class_name": "Ones", "config": {}}, "moving_mean_initializer": {"class_name": "Zeros", "config": {}}, "moving_variance_initializer": {"class_name": "Ones", "config": {}}, "beta_regularizer": null, "gamma_regularizer": null, "beta_constraint": null, "gamma_constraint": null}, "inbound_nodes": [[["m1.b2_3.conv20.989393431276273", 0, 0, {}]]]}, {"name": "m1.b2_30.475004119868107", "class_name": "Activation", "config": {"name": "m1.b2_30.475004119868107", "trainable": true, "activation": "relu"}, "inbound_nodes": [[["m1.b2_3.bn30.9105448386103543", 0, 0, {}]]]}, {"name": "m1.b2_3.conv30.9491315387241143_pad", "class_name": "ZeroPadding2D", "config": {"name": "m1.b2_3.conv30.9491315387241143_pad", "trainable": true, "padding": [[1, 1], [1, 1]], "data_format": "channels_first"}, "inbound_nodes": [[["m1.b2_30.475004119868107", 0, 0, {}]]]}, {"name": "m1.b2_3.conv30.9491315387241143", "class_name": "Conv2D", "config": {"name": "m1.b2_3.conv30.9491315387241143", "trainable": true, "filters": 64, "kernel_size": [3, 3], "strides": [1, 1], "padding": "valid", "data_format": "channels_first", "dilation_rate": [1, 1], "activation": "linear", "use_bias": false, "kernel_initializer": {"class_name": "Zeros", "config": {}}, "bias_initializer": {"class_name": "Zeros", "config": {}}, "kernel_regularizer": null, "bias_regularizer": null, "activity_regularizer": null, "kernel_constraint": null, "bias_constraint": null}, "inbound_nodes": [[["m1.b2_3.conv30.9491315387241143_pad", 0, 0, {}]]]}, {"name": "m1.b2_30.6374942491364052", "class_name": "Concatenate", "config": {"name": "m1.b2_30.6374942491364052", "trainable": true, "axis": 1}, "inbound_nodes": [[["m1.b2_3.conv10.5836777273738422", 0, 0, {}], ["m1.b2_3.conv20.989393431276273", 0, 0, {}], ["m1.b2_3.conv30.9491315387241143", 0, 0, {}]]]}, {"name": "m1.b2_30.38915452484701407", "class_name": "Add", "config": {"name": "m1.b2_30.38915452484701407", "trainable": true}, "inbound_nodes": [[["m1.b2_30.6374942491364052", 0, 0, {}], ["m10.04386843191221501", 0, 0, {}]]]}, {"name": "m10.5026692939791444", "class_name": "ZeroPadding2D", "config": {"name": "m10.5026692939791444", "trainable": true, "padding": [[0, 0], [0, 0]], "data_format": "channels_first"}, "inbound_nodes": [[["m1.b2_30.38915452484701407", 0, 0, {}]]]}, {"name": "m10.131966801469951_pad", "class_name": "ZeroPadding2D", "config": {"name": "m10.131966801469951_pad", "trainable": true, "padding": [[0, 0], [0, 0]], "data_format": "channels_first"}, "inbound_nodes": [[["m10.5026692939791444", 0, 0, {}]]]}, {"name": "m10.131966801469951", "class_name": "AveragePooling2D", "config": {"name": "m10.131966801469951", "trainable": true, "pool_size": [2, 2], "padding": "valid", "strides": [2, 2], "data_format": "channels_first"}, "inbound_nodes": [[["m10.131966801469951_pad", 0, 0, {}]]]}, {"name": "m1.b2_2.bn10.016067000833332012", "class_name": "BatchNormalization", "config": {"name": "m1.b2_2.bn10.016067000833332012", "trainable": true, "axis": 1, "momentum": 1.0, "epsilon": 1e-05, "center": true, "scale": true, "beta_initializer": {"class_name": "Zeros", "config": {}}, "gamma_initializer": {"class_name": "Ones", "config": {}}, "moving_mean_initializer": {"class_name": "Zeros", "config": {}}, "moving_variance_initializer": {"class_name": "Ones", "config": {}}, "beta_regularizer": null, "gamma_regularizer": null, "beta_constraint": null, "gamma_constraint": null}, "inbound_nodes": [[["m10.131966801469951", 0, 0, {}]]]}, {"name": "m1.b2_20.7774954698957737", "class_name": "Activation", "config": {"name": "m1.b2_20.7774954698957737", "trainable": true, "activation": "relu"}, "inbound_nodes": [[["m1.b2_2.bn10.016067000833332012", 0, 0, {}]]]}, {"name": "m1.b2_2.conv10.8689421440546203_pad", "class_name": "ZeroPadding2D", "config": {"name": "m1.b2_2.conv10.8689421440546203_pad", "trainable": true, "padding": [[1, 1], [1, 1]], "data_format": "channels_first"}, "inbound_nodes": [[["m1.b2_20.7774954698957737", 0, 0, {}]]]}, {"name": "m1.b2_2.conv10.8689421440546203", "class_name": "Conv2D", "config": {"name": "m1.b2_2.conv10.8689421440546203", "trainable": true, "filters": 128, "kernel_size": [3, 3], "strides": [1, 1], "padding": "valid", "data_format": "channels_first", "dilation_rate": [1, 1], "activation": "linear", "use_bias": false, "kernel_initializer": {"class_name": "Zeros", "config": {}}, "bias_initializer": {"class_name": "Zeros", "config": {}}, "kernel_regularizer": null, "bias_regularizer": null, "activity_regularizer": null, "kernel_constraint": null, "bias_constraint": null}, "inbound_nodes": [[["m1.b2_2.conv10.8689421440546203_pad", 0, 0, {}]]]}, {"name": "m1.b2_2.bn20.7037020164776225", "class_name": "BatchNormalization", "config": {"name": "m1.b2_2.bn20.7037020164776225", "trainable": true, "axis": 1, "momentum": 1.0, "epsilon": 1e-05, "center": true, "scale": true, "beta_initializer": {"class_name": "Zeros", "config": {}}, "gamma_initializer": {"class_name": "Ones", "config": {}}, "moving_mean_initializer": {"class_name": "Zeros", "config": {}}, "moving_variance_initializer": {"class_name": "Ones", "config": {}}, "beta_regularizer": null, "gamma_regularizer": null, "beta_constraint": null, "gamma_constraint": null}, "inbound_nodes": [[["m1.b2_2.conv10.8689421440546203", 0, 0, {}]]]}, {"name": "m1.b2_20.9228213492555312", "class_name": "Activation", "config": {"name": "m1.b2_20.9228213492555312", "trainable": true, "activation": "relu"}, "inbound_nodes": [[["m1.b2_2.bn20.7037020164776225", 0, 0, {}]]]}, {"name": "m1.b2_2.conv20.2779619477256895_pad", "class_name": "ZeroPadding2D", "config": {"name": "m1.b2_2.conv20.2779619477256895_pad", "trainable": true, "padding": [[1, 1], [1, 1]], "data_format": "channels_first"}, "inbound_nodes": [[["m1.b2_20.9228213492555312", 0, 0, {}]]]}, {"name": "m1.b2_2.conv20.2779619477256895", "class_name": "Conv2D", "config": {"name": "m1.b2_2.conv20.2779619477256895", "trainable": true, "filters": 64, "kernel_size": [3, 3], "strides": [1, 1], "padding": "valid", "data_format": "channels_first", "dilation_rate": [1, 1], "activation": "linear", "use_bias": false, "kernel_initializer": {"class_name": "Zeros", "config": {}}, "bias_initializer": {"class_name": "Zeros", "config": {}}, "kernel_regularizer": null, "bias_regularizer": null, "activity_regularizer": null, "kernel_constraint": null, "bias_constraint": null}, "inbound_nodes": [[["m1.b2_2.conv20.2779619477256895_pad", 0, 0, {}]]]}, {"name": "m1.b2_2.bn30.6323951077187231", "class_name": "BatchNormalization", "config": {"name": "m1.b2_2.bn30.6323951077187231", "trainable": true, "axis": 1, "momentum": 1.0, "epsilon": 1e-05, "center": true, "scale": true, "beta_initializer": {"class_name": "Zeros", "config": {}}, "gamma_initializer": {"class_name": "Ones", "config": {}}, "moving_mean_initializer": {"class_name": "Zeros", "config": {}}, "moving_variance_initializer": {"class_name": "Ones", "config": {}}, "beta_regularizer": null, "gamma_regularizer": null, "beta_constraint": null, "gamma_constraint": null}, "inbound_nodes": [[["m1.b2_2.conv20.2779619477256895", 0, 0, {}]]]}, {"name": "m1.b2_20.4171434998727589", "class_name": "Activation", "config": {"name": "m1.b2_20.4171434998727589", "trainable": true, "activation": "relu"}, "inbound_nodes": [[["m1.b2_2.bn30.6323951077187231", 0, 0, {}]]]}, {"name": "m1.b2_2.conv30.5186122933188279_pad", "class_name": "ZeroPadding2D", "config": {"name": "m1.b2_2.conv30.5186122933188279_pad", "trainable": true, "padding": [[1, 1], [1, 1]], "data_format": "channels_first"}, "inbound_nodes": [[["m1.b2_20.4171434998727589", 0, 0, {}]]]}, {"name": "m1.b2_2.conv30.5186122933188279", "class_name": "Conv2D", "config": {"name": "m1.b2_2.conv30.5186122933188279", "trainable": true, "filters": 64, "kernel_size": [3, 3], "strides": [1, 1], "padding": "valid", "data_format": "channels_first", "dilation_rate": [1, 1], "activation": "linear", "use_bias": false, "kernel_initializer": {"class_name": "Zeros", "config": {}}, "bias_initializer": {"class_name": "Zeros", "config": {}}, "kernel_regularizer": null, "bias_regularizer": null, "activity_regularizer": null, "kernel_constraint": null, "bias_constraint": null}, "inbound_nodes": [[["m1.b2_2.conv30.5186122933188279_pad", 0, 0, {}]]]}, {"name": "m1.b2_20.7296350997725971", "class_name": "Concatenate", "config": {"name": "m1.b2_20.7296350997725971", "trainable": true, "axis": 1}, "inbound_nodes": [[["m1.b2_2.conv10.8689421440546203", 0, 0, {}], ["m1.b2_2.conv20.2779619477256895", 0, 0, {}], ["m1.b2_2.conv30.5186122933188279", 0, 0, {}]]]}, {"name": "m1.b2_20.007396249607779071", "class_name": "Add", "config": {"name": "m1.b2_20.007396249607779071", "trainable": true}, "inbound_nodes": [[["m1.b2_20.7296350997725971", 0, 0, {}], ["m10.131966801469951", 0, 0, {}]]]}, {"name": "m10.9719700144504747", "class_name": "ZeroPadding2D", "config": {"name": "m10.9719700144504747", "trainable": true, "padding": [[0, 0], [0, 0]], "data_format": "channels_first"}, "inbound_nodes": [[["m1.b2_20.007396249607779071", 0, 0, {}]]]}, {"name": "m10.8775528466042661_pad", "class_name": "ZeroPadding2D", "config": {"name": "m10.8775528466042661_pad", "trainable": true, "padding": [[0, 0], [0, 0]], "data_format": "channels_first"}, "inbound_nodes": [[["m10.9719700144504747", 0, 0, {}]]]}, {"name": "m10.8775528466042661", "class_name": "AveragePooling2D", "config": {"name": "m10.8775528466042661", "trainable": true, "pool_size": [2, 2], "padding": "valid", "strides": [2, 2], "data_format": "channels_first"}, "inbound_nodes": [[["m10.8775528466042661_pad", 0, 0, {}]]]}, {"name": "m1.b2_1.bn10.3850214224449737", "class_name": "BatchNormalization", "config": {"name": "m1.b2_1.bn10.3850214224449737", "trainable": true, "axis": 1, "momentum": 1.0, "epsilon": 1e-05, "center": true, "scale": true, "beta_initializer": {"class_name": "Zeros", "config": {}}, "gamma_initializer": {"class_name": "Ones", "config": {}}, "moving_mean_initializer": {"class_name": "Zeros", "config": {}}, "moving_variance_initializer": {"class_name": "Ones", "config": {}}, "beta_regularizer": null, "gamma_regularizer": null, "beta_constraint": null, "gamma_constraint": null}, "inbound_nodes": [[["m10.8775528466042661", 0, 0, {}]]]}, {"name": "m1.b2_10.34827588961443", "class_name": "Activation", "config": {"name": "m1.b2_10.34827588961443", "trainable": true, "activation": "relu"}, "inbound_nodes": [[["m1.b2_1.bn10.3850214224449737", 0, 0, {}]]]}, {"name": "m1.b2_1.conv10.9715121991632839_pad", "class_name": "ZeroPadding2D", "config": {"name": "m1.b2_1.conv10.9715121991632839_pad", "trainable": true, "padding": [[1, 1], [1, 1]], "data_format": "channels_first"}, "inbound_nodes": [[["m1.b2_10.34827588961443", 0, 0, {}]]]}, {"name": "m1.b2_1.conv10.9715121991632839", "class_name": "Conv2D", "config": {"name": "m1.b2_1.conv10.9715121991632839", "trainable": true, "filters": 128, "kernel_size": [3, 3], "strides": [1, 1], "padding": "valid", "data_format": "channels_first", "dilation_rate": [1, 1], "activation": "linear", "use_bias": false, "kernel_initializer": {"class_name": "Zeros", "config": {}}, "bias_initializer": {"class_name": "Zeros", "config": {}}, "kernel_regularizer": null, "bias_regularizer": null, "activity_regularizer": null, "kernel_constraint": null, "bias_constraint": null}, "inbound_nodes": [[["m1.b2_1.conv10.9715121991632839_pad", 0, 0, {}]]]}, {"name": "m1.b2_1.bn20.1285666224185028", "class_name": "BatchNormalization", "config": {"name": "m1.b2_1.bn20.1285666224185028", "trainable": true, "axis": 1, "momentum": 1.0, "epsilon": 1e-05, "center": true, "scale": true, "beta_initializer": {"class_name": "Zeros", "config": {}}, "gamma_initializer": {"class_name": "Ones", "config": {}}, "moving_mean_initializer": {"class_name": "Zeros", "config": {}}, "moving_variance_initializer": {"class_name": "Ones", "config": {}}, "beta_regularizer": null, "gamma_regularizer": null, "beta_constraint": null, "gamma_constraint": null}, "inbound_nodes": [[["m1.b2_1.conv10.9715121991632839", 0, 0, {}]]]}, {"name": "m1.b2_10.0764971959794013", "class_name": "Activation", "config": {"name": "m1.b2_10.0764971959794013", "trainable": true, "activation": "relu"}, "inbound_nodes": [[["m1.b2_1.bn20.1285666224185028", 0, 0, {}]]]}, {"name": "m1.b2_1.conv20.8452573151910399_pad", "class_name": "ZeroPadding2D", "config": {"name": "m1.b2_1.conv20.8452573151910399_pad", "trainable": true, "padding": [[1, 1], [1, 1]], "data_format": "channels_first"}, "inbound_nodes": [[["m1.b2_10.0764971959794013", 0, 0, {}]]]}, {"name": "m1.b2_1.conv20.8452573151910399", "class_name": "Conv2D", "config": {"name": "m1.b2_1.conv20.8452573151910399", "trainable": true, "filters": 64, "kernel_size": [3, 3], "strides": [1, 1], "padding": "valid", "data_format": "channels_first", "dilation_rate": [1, 1], "activation": "linear", "use_bias": false, "kernel_initializer": {"class_name": "Zeros", "config": {}}, "bias_initializer": {"class_name": "Zeros", "config": {}}, "kernel_regularizer": null, "bias_regularizer": null, "activity_regularizer": null, "kernel_constraint": null, "bias_constraint": null}, "inbound_nodes": [[["m1.b2_1.conv20.8452573151910399_pad", 0, 0, {}]]]}, {"name": "m1.b2_1.bn30.8134616914628572", "class_name": "BatchNormalization", "config": {"name": "m1.b2_1.bn30.8134616914628572", "trainable": true, "axis": 1, "momentum": 1.0, "epsilon": 1e-05, "center": true, "scale": true, "beta_initializer": {"class_name": "Zeros", "config": {}}, "gamma_initializer": {"class_name": "Ones", "config": {}}, "moving_mean_initializer": {"class_name": "Zeros", "config": {}}, "moving_variance_initializer": {"class_name": "Ones", "config": {}}, "beta_regularizer": null, "gamma_regularizer": null, "beta_constraint": null, "gamma_constraint": null}, "inbound_nodes": [[["m1.b2_1.conv20.8452573151910399", 0, 0, {}]]]}, {"name": "m1.b2_10.6640289512959622", "class_name": "Activation", "config": {"name": "m1.b2_10.6640289512959622", "trainable": true, "activation": "relu"}, "inbound_nodes": [[["m1.b2_1.bn30.8134616914628572", 0, 0, {}]]]}, {"name": "m1.b2_1.conv30.8196938927815722_pad", "class_name": "ZeroPadding2D", "config": {"name": "m1.b2_1.conv30.8196938927815722_pad", "trainable": true, "padding": [[1, 1], [1, 1]], "data_format": "channels_first"}, "inbound_nodes": [[["m1.b2_10.6640289512959622", 0, 0, {}]]]}, {"name": "m1.b2_1.conv30.8196938927815722", "class_name": "Conv2D", "config": {"name": "m1.b2_1.conv30.8196938927815722", "trainable": true, "filters": 64, "kernel_size": [3, 3], "strides": [1, 1], "padding": "valid", "data_format": "channels_first", "dilation_rate": [1, 1], "activation": "linear", "use_bias": false, "kernel_initializer": {"class_name": "Zeros", "config": {}}, "bias_initializer": {"class_name": "Zeros", "config": {}}, "kernel_regularizer": null, "bias_regularizer": null, "activity_regularizer": null, "kernel_constraint": null, "bias_constraint": null}, "inbound_nodes": [[["m1.b2_1.conv30.8196938927815722_pad", 0, 0, {}]]]}, {"name": "m1.b2_10.5574889583549816", "class_name": "Concatenate", "config": {"name": "m1.b2_10.5574889583549816", "trainable": true, "axis": 1}, "inbound_nodes": [[["m1.b2_1.conv10.9715121991632839", 0, 0, {}], ["m1.b2_1.conv20.8452573151910399", 0, 0, {}], ["m1.b2_1.conv30.8196938927815722", 0, 0, {}]]]}, {"name": "m1.b2_10.1431629795924464", "class_name": "Add", "config": {"name": "m1.b2_10.1431629795924464", "trainable": true}, "inbound_nodes": [[["m1.b2_10.5574889583549816", 0, 0, {}], ["m10.8775528466042661", 0, 0, {}]]]}, {"name": "m1.b2_plus_1.bn10.6050184151613928", "class_name": "BatchNormalization", "config": {"name": "m1.b2_plus_1.bn10.6050184151613928", "trainable": true, "axis": 1, "momentum": 1.0, "epsilon": 1e-05, "center": true, "scale": true, "beta_initializer": {"class_name": "Zeros", "config": {}}, "gamma_initializer": {"class_name": "Ones", "config": {}}, "moving_mean_initializer": {"class_name": "Zeros", "config": {}}, "moving_variance_initializer": {"class_name": "Ones", "config": {}}, "beta_regularizer": null, "gamma_regularizer": null, "beta_constraint": null, "gamma_constraint": null}, "inbound_nodes": [[["m1.b2_10.1431629795924464", 0, 0, {}]]]}, {"name": "m1.b2_plus_10.5193580696392995", "class_name": "Activation", "config": {"name": "m1.b2_plus_10.5193580696392995", "trainable": true, "activation": "relu"}, "inbound_nodes": [[["m1.b2_plus_1.bn10.6050184151613928", 0, 0, {}]]]}, {"name": "m1.b2_plus_1.conv10.1981228369580491_pad", "class_name": "ZeroPadding2D", "config": {"name": "m1.b2_plus_1.conv10.1981228369580491_pad", "trainable": true, "padding": [[1, 1], [1, 1]], "data_format": "channels_first"}, "inbound_nodes": [[["m1.b2_plus_10.5193580696392995", 0, 0, {}]]]}, {"name": "m1.b2_plus_1.conv10.1981228369580491", "class_name": "Conv2D", "config": {"name": "m1.b2_plus_1.conv10.1981228369580491", "trainable": true, "filters": 128, "kernel_size": [3, 3], "strides": [1, 1], "padding": "valid", "data_format": "channels_first", "dilation_rate": [1, 1], "activation": "linear", "use_bias": false, "kernel_initializer": {"class_name": "Zeros", "config": {}}, "bias_initializer": {"class_name": "Zeros", "config": {}}, "kernel_regularizer": null, "bias_regularizer": null, "activity_regularizer": null, "kernel_constraint": null, "bias_constraint": null}, "inbound_nodes": [[["m1.b2_plus_1.conv10.1981228369580491_pad", 0, 0, {}]]]}, {"name": "m1.b2_plus_1.bn20.040972941845969446", "class_name": "BatchNormalization", "config": {"name": "m1.b2_plus_1.bn20.040972941845969446", "trainable": true, "axis": 1, "momentum": 1.0, "epsilon": 1e-05, "center": true, "scale": true, "beta_initializer": {"class_name": "Zeros", "config": {}}, "gamma_initializer": {"class_name": "Ones", "config": {}}, "moving_mean_initializer": {"class_name": "Zeros", "config": {}}, "moving_variance_initializer": {"class_name": "Ones", "config": {}}, "beta_regularizer": null, "gamma_regularizer": null, "beta_constraint": null, "gamma_constraint": null}, "inbound_nodes": [[["m1.b2_plus_1.conv10.1981228369580491", 0, 0, {}]]]}, {"name": "m1.b2_plus_10.13139950830932046", "class_name": "Activation", "config": {"name": "m1.b2_plus_10.13139950830932046", "trainable": true, "activation": "relu"}, "inbound_nodes": [[["m1.b2_plus_1.bn20.040972941845969446", 0, 0, {}]]]}, {"name": "m1.b2_plus_1.conv20.025239458188172637_pad", "class_name": "ZeroPadding2D", "config": {"name": "m1.b2_plus_1.conv20.025239458188172637_pad", "trainable": true, "padding": [[1, 1], [1, 1]], "data_format": "channels_first"}, "inbound_nodes": [[["m1.b2_plus_10.13139950830932046", 0, 0, {}]]]}, {"name": "m1.b2_plus_1.conv20.025239458188172637", "class_name": "Conv2D", "config": {"name": "m1.b2_plus_1.conv20.025239458188172637", "trainable": true, "filters": 64, "kernel_size": [3, 3], "strides": [1, 1], "padding": "valid", "data_format": "channels_first", "dilation_rate": [1, 1], "activation": "linear", "use_bias": false, "kernel_initializer": {"class_name": "Zeros", "config": {}}, "bias_initializer": {"class_name": "Zeros", "config": {}}, "kernel_regularizer": null, "bias_regularizer": null, "activity_regularizer": null, "kernel_constraint": null, "bias_constraint": null}, "inbound_nodes": [[["m1.b2_plus_1.conv20.025239458188172637_pad", 0, 0, {}]]]}, {"name": "m1.b2_plus_1.bn30.23861163723006884", "class_name": "BatchNormalization", "config": {"name": "m1.b2_plus_1.bn30.23861163723006884", "trainable": true, "axis": 1, "momentum": 1.0, "epsilon": 1e-05, "center": true, "scale": true, "beta_initializer": {"class_name": "Zeros", "config": {}}, "gamma_initializer": {"class_name": "Ones", "config": {}}, "moving_mean_initializer": {"class_name": "Zeros", "config": {}}, "moving_variance_initializer": {"class_name": "Ones", "config": {}}, "beta_regularizer": null, "gamma_regularizer": null, "beta_constraint": null, "gamma_constraint": null}, "inbound_nodes": [[["m1.b2_plus_1.conv20.025239458188172637", 0, 0, {}]]]}, {"name": "m1.b2_plus_10.8643898694169044", "class_name": "Activation", "config": {"name": "m1.b2_plus_10.8643898694169044", "trainable": true, "activation": "relu"}, "inbound_nodes": [[["m1.b2_plus_1.bn30.23861163723006884", 0, 0, {}]]]}, {"name": "m1.b2_plus_1.conv30.010444930192385682_pad", "class_name": "ZeroPadding2D", "config": {"name": "m1.b2_plus_1.conv30.010444930192385682_pad", "trainable": true, "padding": [[1, 1], [1, 1]], "data_format": "channels_first"}, "inbound_nodes": [[["m1.b2_plus_10.8643898694169044", 0, 0, {}]]]}, {"name": "m1.b2_plus_1.conv30.010444930192385682", "class_name": "Conv2D", "config": {"name": "m1.b2_plus_1.conv30.010444930192385682", "trainable": true, "filters": 64, "kernel_size": [3, 3], "strides": [1, 1], "padding": "valid", "data_format": "channels_first", "dilation_rate": [1, 1], "activation": "linear", "use_bias": false, "kernel_initializer": {"class_name": "Zeros", "config": {}}, "bias_initializer": {"class_name": "Zeros", "config": {}}, "kernel_regularizer": null, "bias_regularizer": null, "activity_regularizer": null, "kernel_constraint": null, "bias_constraint": null}, "inbound_nodes": [[["m1.b2_plus_1.conv30.010444930192385682_pad", 0, 0, {}]]]}, {"name": "m1.b2_plus_10.3639453799751827", "class_name": "Concatenate", "config": {"name": "m1.b2_plus_10.3639453799751827", "trainable": true, "axis": 1}, "inbound_nodes": [[["m1.b2_plus_1.conv10.1981228369580491", 0, 0, {}], ["m1.b2_plus_1.conv20.025239458188172637", 0, 0, {}], ["m1.b2_plus_1.conv30.010444930192385682", 0, 0, {}]]]}, {"name": "m1.b2_plus_10.8733669331425169", "class_name": "Add", "config": {"name": "m1.b2_plus_10.8733669331425169", "trainable": true}, "inbound_nodes": [[["m1.b2_plus_10.3639453799751827", 0, 0, {}], ["m1.b2_10.1431629795924464", 0, 0, {}]]]}, {"name": "m1.b3_1.bn10.09337863565600257", "class_name": "BatchNormalization", "config": {"name": "m1.b3_1.bn10.09337863565600257", "trainable": true, "axis": 1, "momentum": 1.0, "epsilon": 1e-05, "center": true, "scale": true, "beta_initializer": {"class_name": "Zeros", "config": {}}, "gamma_initializer": {"class_name": "Ones", "config": {}}, "moving_mean_initializer": {"class_name": "Zeros", "config": {}}, "moving_variance_initializer": {"class_name": "Ones", "config": {}}, "beta_regularizer": null, "gamma_regularizer": null, "beta_constraint": null, "gamma_constraint": null}, "inbound_nodes": [[["m1.b2_plus_10.8733669331425…
shape": [128], "dtype": "float32"}, {"name": "m1.b2_3.bn20.3320047283535108/moving_mean", "shape": [128], "dtype": "float32"}, {"name": "m1.b2_3.bn20.3320047283535108/moving_variance", "shape": [128], "dtype": "float32"}, {"name": "m1.b2_3.bn30.9105448386103543/gamma", "shape": [64], "dtype": "float32"}, {"name": "m1.b2_3.bn30.9105448386103543/beta", "shape": [64], "dtype": "float32"}, {"name": "m1.b2_3.bn30.9105448386103543/moving_mean", "shape": [64], "dtype": "float32"}, {"name": "m1.b2_3.bn30.9105448386103543/moving_variance", "shape": [64], "dtype": "float32"}, {"name": "m1.b2_3.conv10.5836777273738422/kernel", "shape": [3, 3, 256, 128], "dtype": "float32"}, {"name": "m1.b2_3.conv20.989393431276273/kernel", "shape": [3, 3, 128, 64], "dtype": "float32"}, {"name": "m1.b2_3.conv30.9491315387241143/kernel", "shape": [3, 3, 64, 64], "dtype": "float32"}, {"name": "m1.b2_4.bn10.5198576306547935/gamma", "shape": [256], "dtype": "float32"}, {"name": "m1.b2_4.bn10.5198576306547935/beta", "shape": [256], "dtype": "float32"}, {"name": "m1.b2_4.bn10.5198576306547935/moving_mean", "shape": [256], "dtype": "float32"}, {"name": "m1.b2_4.bn10.5198576306547935/moving_variance", "shape": [256], "dtype": "float32"}, {"name": "m1.b2_4.bn20.08824911006046587/gamma", "shape": [128], "dtype": "float32"}, {"name": "m1.b2_4.bn20.08824911006046587/beta", "shape": [128], "dtype": "float32"}, {"name": "m1.b2_4.bn20.08824911006046587/moving_mean", "shape": [128], "dtype": "float32"}, {"name": "m1.b2_4.bn20.08824911006046587/moving_variance", "shape": [128], "dtype": "float32"}, {"name": "m1.b2_4.bn30.7322157112513628/gamma", "shape": [64], "dtype": "float32"}, {"name": "m1.b2_4.bn30.7322157112513628/beta", "shape": [64], "dtype": "float32"}, {"name": "m1.b2_4.bn30.7322157112513628/moving_mean", "shape": [64], "dtype": "float32"}, {"name": "m1.b2_4.bn30.7322157112513628/moving_variance", "shape": [64], "dtype": "float32"}, {"name": "m1.b2_4.conv10.9895092439748278/kernel", "shape": [3, 3, 256, 128], "dtype": "float32"}, {"name": "m1.b2_4.conv20.9534235042475988/kernel", "shape": [3, 3, 128, 64], "dtype": "float32"}, {"name": "m1.b2_4.conv30.44315634599414333/kernel", "shape": [3, 3, 64, 64], "dtype": "float32"}, {"name": "m1.b2_plus_1.bn10.6050184151613928/gamma", "shape": [256], "dtype": "float32"}, {"name": "m1.b2_plus_1.bn10.6050184151613928/beta", "shape": [256], "dtype": "float32"}, {"name": "m1.b2_plus_1.bn10.6050184151613928/moving_mean", "shape": [256], "dtype": "float32"}, {"name": "m1.b2_plus_1.bn10.6050184151613928/moving_variance", "shape": [256], "dtype": "float32"}, {"name": "m1.b2_plus_1.bn20.040972941845969446/gamma", "shape": [128], "dtype": "float32"}, {"name": "m1.b2_plus_1.bn20.040972941845969446/beta", "shape": [128], "dtype": "float32"}, {"name": "m1.b2_plus_1.bn20.040972941845969446/moving_mean", "shape": [128], "dtype": "float32"}, {"name": "m1.b2_plus_1.bn20.040972941845969446/moving_variance", "shape": [128], "dtype": "float32"}, {"name": "m1.b2_plus_1.bn30.23861163723006884/gamma", "shape": [64], "dtype": "float32"}, {"name": "m1.b2_plus_1.bn30.23861163723006884/beta", "shape": [64], "dtype": "float32"}, {"name": "m1.b2_plus_1.bn30.23861163723006884/moving_mean", "shape": [64], "dtype": "float32"}, {"name": "m1.b2_plus_1.bn30.23861163723006884/moving_variance", "shape": [64], "dtype": "float32"}, {"name": "m1.b2_plus_1.conv10.1981228369580491/kernel", "shape": [3, 3, 256, 128], "dtype": "float32"}, {"name": "m1.b2_plus_1.conv20.025239458188172637/kernel", "shape": [3, 3, 128, 64], "dtype": "float32"}, {"name": "m1.b2_plus_1.conv30.010444930192385682/kernel", "shape": [3, 3, 64, 64], "dtype": "float32"}, {"name": "m1.b3_1.bn10.09337863565600257/gamma", "shape": [256], "dtype": "float32"}, {"name": "m1.b3_1.bn10.09337863565600257/beta", "shape": [256], "dtype": "float32"}, {"name": "m1.b3_1.bn10.09337863565600257/moving_mean", "shape": [256], "dtype": "float32"}, {"name": "m1.b3_1.bn10.09337863565600257/moving_variance", "shape": [256], "dtype": "float32"}, {"name": "m1.b3_1.bn20.416193287803455/gamma", "shape": [128], "dtype": "float32"}, {"name": "m1.b3_1.bn20.416193287803455/beta", "shape": [128], "dtype": "float32"}, {"name": "m1.b3_1.bn20.416193287803455/moving_mean", "shape": [128], "dtype": "float32"}, {"name": "m1.b3_1.bn20.416193287803455/moving_variance", "shape": [128], "dtype": "float32"}, {"name": "m1.b3_1.bn30.5358330668989898/gamma", "shape": [64], "dtype": "float32"}, {"name": "m1.b3_1.bn30.5358330668989898/beta", "shape": [64], "dtype": "float32"}, {"name": "m1.b3_1.bn30.5358330668989898/moving_mean", "shape": [64], "dtype": "float32"}, {"name": "m1.b3_1.bn30.5358330668989898/moving_variance", "shape": [64], "dtype": "float32"}, {"name": "m1.b3_1.conv10.954474094888625/kernel", "shape": [3, 3, 256, 128], "dtype": "float32"}, {"name": "m1.b3_1.conv20.17281936791540786/kernel", "shape": [3, 3, 128, 64], "dtype": "float32"}, {"name": "m1.b3_1.conv30.9903377140329879/kernel", "shape": [3, 3, 64, 64], "dtype": "float32"}, {"name": "m1.b3_2.bn10.30273233752661766/gamma", "shape": [256], "dtype": "float32"}, {"name": "m1.b3_2.bn10.30273233752661766/beta", "shape": [256], "dtype": "float32"}, {"name": "m1.b3_2.bn10.30273233752661766/moving_mean", "shape": [256], "dtype": "float32"}, {"name": "m1.b3_2.bn10.30273233752661766/moving_variance", "shape": [256], "dtype": "float32"}, {"name": "m1.b3_2.bn20.219456750350849/gamma", "shape": [128], "dtype": "float32"}, {"name": "m1.b3_2.bn20.219456750350849/beta", "shape": [128], "dtype": "float32"}, {"name": "m1.b3_2.bn20.219456750350849/moving_mean", "shape": [128], "dtype": "float32"}, {"name": "m1.b3_2.bn20.219456750350849/moving_variance", "shape": [128], "dtype": "float32"}, {"name": "m1.b3_2.bn30.8206683526423693/gamma", "shape": [64], "dtype": "float32"}, {"name": "m1.b3_2.bn30.8206683526423693/beta", "shape": [64], "dtype": "float32"}, {"name": "m1.b3_2.bn30.8206683526423693/moving_mean", "shape": [64], "dtype": "float32"}, {"name": "m1.b3_2.bn30.8206683526423693/moving_variance", "shape": [64], "dtype": "float32"}, {"name": "m1.b3_2.conv10.10367797425674341/kernel", "shape": [3, 3, 256, 128], "dtype": "float32"}, {"name": "m1.b3_2.conv20.6898638856307833/kernel", "shape": [3, 3, 128, 64], "dtype": "float32"}, {"name": "m1.b3_2.conv30.2543563963517681/kernel", "shape": [3, 3, 64, 64], "dtype": "float32"}, {"name": "m1.b3_3.bn10.7572831787692639/gamma", "shape": [256], "dtype": "float32"}, {"name": "m1.b3_3.bn10.7572831787692639/beta", "shape": [256], "dtype": "float32"}, {"name": "m1.b3_3.bn10.7572831787692639/moving_mean", "shape": [256], "dtype": "float32"}, {"name": "m1.b3_3.bn10.7572831787692639/moving_variance", "shape": [256], "dtype": "float32"}, {"name": "m1.b3_3.bn20.5658113568817557/gamma", "shape": [128], "dtype": "float32"}, {"name": "m1.b3_3.bn20.5658113568817557/beta", "shape": [128], "dtype": "float32"}, {"name": "m1.b3_3.bn20.5658113568817557/moving_mean", "shape": [128], "dtype": "float32"}, {"name": "m1.b3_3.bn20.5658113568817557/moving_variance", "shape": [128], "dtype": "float32"}, {"name": "m1.b3_3.bn30.9897211767476385/gamma", "shape": [64], "dtype": "float32"}, {"name": "m1.b3_3.bn30.9897211767476385/beta", "shape": [64], "dtype": "float32"}, {"name": "m1.b3_3.bn30.9897211767476385/moving_mean", "shape": [64], "dtype": "float32"}, {"name": "m1.b3_3.bn30.9897211767476385/moving_variance", "shape": [64], "dtype": "float32"}, {"name": "m1.b3_3.conv10.5425860117443518/kernel", "shape": [3, 3, 256, 128], "dtype": "float32"}, {"name": "m1.b3_3.conv20.18659445982290535/kernel", "shape": [3, 3, 128, 64], "dtype": "float32"}, {"name": "m1.b3_3.conv30.5844478935730708/kernel", "shape": [3, 3, 64, 64], "dtype": "float32"}, {"name": "m1.b3_4.bn10.3459409297533531/gamma", "shape": [256], "dtype": "float32"}, {"name": "m1.b3_4.bn10.3459409297533531/beta", "shape": [256], "dtype": "float32"}, {"name": "m1.b3_4.bn10.3459409297533531/moving_mean", "shape": [256], "dtype": "float32"}, {"name": "m1.b3_4.bn10.3459409297533531/moving_variance", "shape": [256], "dtype": "float32"}, {"name": "m1.b3_4.bn20.5681810510227864/gamma", "shape": [128], "dtype": "float32"}, {"name": "m1.b3_4.bn20.5681810510227864/beta", "shape": [128], "dtype": "float32"}, {"name": "m1.b3_4.bn20.5681810510227864/moving_mean", "shape": [128], "dtype": "float32"}, {"name": "m1.b3_4.bn20.5681810510227864/moving_variance", "shape": [128], "dtype": "float32"}, {"name": "m1.b3_4.bn30.04953228374926533/gamma", "shape": [64], "dtype": "float32"}, {"name": "m1.b3_4.bn30.04953228374926533/beta", "shape": [64], "dtype": "float32"}, {"name": "m1.b3_4.bn30.04953228374926533/moving_mean", "shape": [64], "dtype": "float32"}, {"name": "m1.b3_4.bn30.04953228374926533/moving_variance", "shape": [64], "dtype": "float32"}, {"name": "m1.b3_4.conv10.4823073234655605/kernel", "shape": [3, 3, 256, 128], "dtype": "float32"}, {"name": "m1.b3_4.conv20.1708783848063714/kernel", "shape": [3, 3, 128, 64], "dtype": "float32"}, {"name": "m1.b3_4.conv30.5110961440931235/kernel", "shape": [3, 3, 64, 64], "dtype": "float32"}, {"name": "m2.b1_1.bn10.38246828439955505/gamma", "shape": [256], "dtype": "float32"}, {"name": "m2.b1_1.bn10.38246828439955505/beta", "shape": [256], "dtype": "float32"}, {"name": "m2.b1_1.bn10.38246828439955505/moving_mean", "shape": [256], "dtype": "float32"}, {"name": "m2.b1_1.bn10.38246828439955505/moving_variance", "shape": [256], "dtype": "float32"}, {"name": "m2.b1_1.bn20.9394885353916386/gamma", "shape": [128], "dtype": "float32"}, {"name": "m2.b1_1.bn20.9394885353916386/beta", "shape": [128], "dtype": "float32"}, {"name": "m2.b1_1.bn20.9394885353916386/moving_mean", "shape": [128], "dtype": "float32"}, {"name": "m2.b1_1.bn20.9394885353916386/moving_variance", "shape": [128], "dtype": "float32"}, {"name": "m2.b1_1.bn30.73355699007381/gamma", "shape": [64], "dtype": "float32"}, {"name": "m2.b1_1.bn30.73355699007381/beta", "shape": [64], "dtype": "float32"}, {"name": "m2.b1_1.bn30.73355699007381/moving_mean", "shape": [64], "dtype": "float32"}, {"name": "m2.b1_1.bn30.73355699007381/moving_variance", "shape": [64], "dtype": "float32"}, {"name": "m2.b1_1.conv10.17909584257079947/kernel", "shape": [3, 3, 256, 128], "dtype": "float32"}, {"name": "m2.b1_1.conv20.611741890769834/kernel", "shape": [3, 3, 128, 64], "dtype": "float32"}, {"name": "m2.b1_1.conv30.6726463502443708/kernel", "shape": [3, 3, 64, 64], "dtype": "float32"}, {"name": "m2.b1_2.bn10.25936763748867164/gamma", "shape": [256], "dtype": "float32"}, {"name": "m2.b1_2.bn10.25936763748867164/beta", "shape": [256], "dtype": "float32"}, {"name": "m2.b1_2.bn10.25936763748867164/moving_mean", "shape": [256], "dtype": "float32"}, {"name": "m2.b1_2.bn10.25936763748867164/moving_variance", "shape": [256], "dtype": "float32"}, {"name": "m2.b1_2.bn20.4280560742926365/gamma", "shape": [128], "dtype": "float32"}, {"name": "m2.b1_2.bn20.4280560742926365/beta", "shape": [128], "dtype": "float32"}, {"name": "m2.b1_2.bn20.4280560742926365/moving_mean", "shape": [128], "dtype": "float32"}, {"name": "m2.b1_2.bn20.4280560742926365/moving_variance", "shape": [128], "dtype": "float32"}, {"name": "m2.b1_2.bn30.02348631924732214/gamma", "shape": [64], "dtype": "float32"}, {"name": "m2.b1_2.bn30.02348631924732214/beta", "shape": [64], "dtype": "float32"}, {"name": "m2.b1_2.bn30.02348631924732214/moving_mean", "shape": [64], "dtype": "float32"}, {"name": "m2.b1_2.bn30.02348631924732214/moving_variance", "shape": [64], "dtype": "float32"}, {"name": "m2.b1_2.conv10.8211713024031924/kernel", "shape": [3, 3, 256, 128], "dtype": "float32"}, {"name": "m2.b1_2.conv20.8604988658459872/kernel", "shape": [3, 3, 128, 64], "dtype": "float32"}, {"name": "m2.b1_2.conv30.29578349545907434/kernel", "shape": [3, 3, 64, 64], "dtype": "float32"}, {"name": "m2.b1_3.bn10.40763983981946383/gamma", "shape": [256], "dtype": "float32"}, {"name": "m2.b1_3.bn10.40763983981946383/beta", "shape": [256], "dtype": "float32"}, {"name": "m2.b1_3.bn10.40763983981946383/moving_mean", "shape": [256], "dtype": "float32"}, {"name": "m2.b1_3.bn10.40763983981946383/moving_variance", "shape": [256], "dtype": "float32"}, {"name": "m2.b1_3.bn20.30412455137129657/gamma", "shape": [128], "dtype": "float32"}, {"name": "m2.b1_3.bn20.30412455137129657/beta", "shape": [128], "dtype": "float32"}, {"name": "m2.b1_3.bn20.30412455137129657/moving_mean", "shape": [128], "dtype": "float32"}, {"name": "m2.b1_3.bn20.30412455137129657/moving_variance", "shape": [128], "dtype": "float32"}, {"name": "m2.b1_3.bn30.37322935764691456/gamma", "shape": [64], "dtype": "float32"}, {"name": "m2.b1_3.bn30.37322935764691456/beta", "shape": [64], "dtype": "float32"}, {"name": "m2.b1_3.bn30.37322935764691456/moving_mean", "shape": [64], "dtype": "float32"}, {"name": "m2.b1_3.bn30.37322935764691456/moving_variance", "shape": [64], "dtype": "float32"}, {"name": "m2.b1_3.conv10.9285264818630612/kernel", "shape": [3, 3, 256, 128], "dtype": "float32"}, {"name": "m2.b1_3.conv20.6201479717380671/kernel", "shape": [3, 3, 128, 64], "dtype": "float32"}, {"name": "m2.b1_3.conv30.6028649150495777/kernel", "shape": [3, 3, 64, 64], "dtype": "float32"}, {"name": "m2.b1_4.bn10.145211354788069/gamma", "shape": [256], "dtype": "float32"}, {"name": "m2.b1_4.bn10.145211354788069/beta", "shape": [256], "dtype": "float32"}, {"name": "m2.b1_4.bn10.145211354788069/moving_mean", "shape": [256], "dtype": "float32"}, {"name": "m2.b1_4.bn10.145211354788069/moving_variance", "shape": [256], "dtype": "float32"}, {"name": "m2.b1_4.bn20.9837905833532438/gamma", "shape": [128], "dtype": "float32"}, {"name": "m2.b1_4.bn20.9837905833532438/beta", "shape": [128], "dtype": "float32"}, {"name": "m2.b1_4.bn20.9837905833532438/moving_mean", "shape": [128], "dtype": "float32"}, {"name": "m2.b1_4.bn20.9837905833532438/moving_variance", "shape": [128], "dtype": "float32"}, {"name": "m2.b1_4.bn30.19355388224651415/gamma", "shape": [64], "dtype": "float32"}, {"name": "m2.b1_4.bn30.19355388224651415/beta", "shape": [64], "dtype": "float32"}, {"name": "m2.b1_4.bn30.19355388224651415/moving_mean", "shape": [64], "dtype": "float32"}, {"name": "m2.b1_4.bn30.19355388224651415/moving_variance", "shape": [64], "dtype": "float32"}, {"name": "m2.b1_4.conv10.5577868992309325/kernel", "shape": [3, 3, 256, 128], "dtype": "float32"}, {"name": "m2.b1_4.conv20.5932910761721709/kernel", "shape": [3, 3, 128, 64], "dtype": "float32"}, {"name": "m2.b1_4.conv30.5479941827575692/kernel", "shape": [3, 3, 64, 64], "dtype": "float32"}, {"name": "m2.b2_1.bn10.27105035807809386/gamma", "shape": [256], "dtype": "float32"}, {"name": "m2.b2_1.bn10.27105035807809386/beta", "shape": [256], "dtype": "float32"}, {"name": "m2.b2_1.bn10.27105035807809386/moving_mean", "shape": [256], "dtype": "float32"}, {"name": "m2.b2_1.bn10.27105035807809386/moving_variance", "shape": [256], "dtype": "float32"}, {"name": "m2.b2_1.bn20.19261752940432075/gamma", "shape": [128], "dtype": "float32"}, {"name": "m2.b2_1.bn20.19261752940432075/beta", "shape": [128], "dtype": "float32"}, {"name": "m2.b2_1.bn20.19261752940432075/moving_mean", "shape": [128], "dtype": "float32"}, {"name": "m2.b2_1.bn20.19261752940432075/moving_variance", "shape": [128], "dtype": "float32"}, {"name": "m2.b2_1.bn30.602783914406475/gamma", "shape": [64], "dtype": "float32"}, {"name": "m2.b2_1.bn30.602783914406475/beta", "shape": [64], "dtype": "float32"}, {"name": "m2.b2_1.bn30.602783914406475/moving_mean", "shape": [64], "dtype": "float32"}, {"name": "m2.b2_1.bn30.602783914406475/moving_variance", "shape": [64], "dtype": "float32"}, {"name": "m2.b2_1.conv10.6524852239619279/kernel", "shape": [3, 3, 256, 128], "dtype": "float32"}, {"name": "m2.b2_1.conv20.7640981119901268/kernel", "shape": [3, 3, 128, 64], "dtype": "float32"}, {"name": "m2.b2_1.conv30.004166828424643887/kernel", "shape": [3, 3, 64, 64], "dtype": "float32"}, {"name": "m2.b2_2.bn10.06902312398517163/gamma", "shape": [256], "dtype": "float32"}, {"name": "m2.b2_2.bn10.06902312398517163/beta", "shape": [256], "dtype": "float32"}, {"name": "m2.b2_2.bn10.06902312398517163/moving_mean", "shape": [256], "dtype": "float32"}, {"name": "m2.b2_2.bn10.06902312398517163/moving_variance", "shape": [256], "dtype": "float32"}, {"name": "m2.b2_2.bn20.5401295699809233/gamma", "shape": [128], "dtype": "float32"}, {"name": "m2.b2_2.bn20.5401295699809233/beta", "shape": [128], "dtype": "float32"}, {"name": "m2.b2_2.bn20.5401295699809233/moving_mean", "shape": [128], "dtype": "float32"}, {"name": "m2.b2_2.bn20.5401295699809233/moving_variance", "shape": [128], "dtype": "float32"}, {"name": "m2.b2_2.bn30.9432806346395987/gamma", "shape": [64], "dtype": "float32"}, {"name": "m2.b2_2.bn30.9432806346395987/beta", "shape": [64], "dtype": "float32"}, {"name": "m2.b2_2.bn30.9432806346395987/moving_mean", "shape": [64], "dtype": "float32"}, {"name": "m2.b2_2.bn30.9432806346395987/moving_variance", "shape": [64], "dtype": "float32"}, {"name": "m2.b2_2.conv10.37458537514845336/kernel", "shape": [3, 3, 256, 128], "dtype": "float32"}, {"name": "m2.b2_2.conv20.7304877132036169/kernel", "shape": [3, 3, 128, 64], "dtype": "float32"}, {"name": "m2.b2_2.conv30.7847199906552169/kernel", "shape": [3, 3, 64, 64], "dtype": "float32"}, {"name": "m2.b2_3.bn10.9323760510843622/gamma", "shape": [256], "dtype": "float32"}, {"name": "m2.b2_3.bn10.9323760510843622/beta", "shape": [256], "dtype": "float32"}, {"name": "m2.b2_3.bn10.9323760510843622/moving_mean", "shape": [256], "dtype": "float32"}, {"name": "m2.b2_3.bn10.9323760510843622/moving_variance", "shape": [256], "dtype": "float32"}, {"name": "m2.b2_3.bn20.0015680615766878736/gamma", "shape": [128], "dtype": "float32"}, {"name": "m2.b2_3.bn20.0015680615766878736/beta", "shape": [128], "dtype": "float32"}, {"name": "m2.b2_3.bn20.0015680615766878736/moving_mean", "shape": [128], "dtype": "float32"}, {"name": "m2.b2_3.bn20.0015680615766878736/moving_variance", "shape": [128], "dtype": "float32"}, {"name": "m2.b2_3.bn30.519315490065616/gamma", "shape": [64], "dtype": "float32"}, {"name": "m2.b2_3.bn30.519315490065616/beta", "shape": [64], "dtype": "float32"}, {"name": "m2.b2_3.bn30.519315490065616/moving_mean", "shape": [64], "dtype": "float32"}, {"name": "m2.b2_3.bn30.519315490065616/moving_variance", "shape": [64], "dtype": "float32"}, {"name": "m2.b2_3.conv10.4519762455502392/kernel", "shape": [3, 3, 256, 128], "dtype": "float32"}, {"name": "m2.b2_3.conv20.10377784009653757/kernel", "shape": [3, 3, 128, 64], "dtype": "float32"}, {"name": "m2.b2_3.conv30.43282583284549336/kernel", "shape": [3, 3, 64, 64], "dtype": "float32"}, {"name": "m2.b2_4.bn10.18528398745160424/gamma", "shape": [256], "dtype": "float32"}, {"name": "m2.b2_4.bn10.18528398745160424/beta", "shape": [256], "dtype": "float32"}, {"name": "m2.b2_4.bn10.18528398745160424/moving_mean", "shape": [256], "dtype": "float32"}, {"name": "m2.b2_4.bn10.18528398745160424/moving_variance", "shape": [256], "dtype": "float32"}, {"name": "m2.b2_4.bn20.44649529965870094/gamma", "shape": [128], "dtype": "float32"}, {"name": "m2.b2_4.bn20.44649529965870094/beta", "shape": [128], "dtype": "float32"}, {"name": "m2.b2_4.bn20.44649529965870094/moving_mean", "shape": [128], "dtype": "float32"}, {"name": "m2.b2_4.bn20.44649529965870094/moving_variance", "shape": [128], "dtype": "float32"}, {"name": "m2.b2_4.bn30.6014953025716592/gamma", "shape": [64], "dtype": "float32"}, {"name": "m2.b2_4.bn30.6014953025716592/beta", "shape": [64], "dtype": "float32"}, {"name": "m2.b2_4.bn30.6014953025716592/moving_mean", "shape": [64], "dtype": "float32"}, {"name": "m2.b2_4.bn30.6014953025716592/moving_variance", "shape": [64], "dtype": "float32"}, {"name": "m2.b2_4.conv10.5494487251200518/kernel", "shape": [3, 3, 256, 128], "dtype": "float32"}, {"name": "m2.b2_4.conv20.9946778201866475/kernel", "shape": [3, 3, 128, 64], "dtype": "float32"}, {"name": "m2.b2_4.conv30.433466428615893/kernel", "shape": [3, 3, 64, 64], "dtype": "float32"}, {"name": "m2.b2_plus_1.bn10.5192177441122089/gamma", "shape": [256], "dtype": "float32"}, {"name": "m2.b2_plus_1.bn10.5192177441122089/beta", "shape": [256], "dtype": "float32"}, {"name": "m2.b2_plus_1.bn10.5192177441122089/moving_mean", "shape": [256], "dtype": "float32"}, {"name": "m2.b2_plus_1.bn10.5192177441122089/moving_variance", "shape": [256], "dtype": "float32"}, {"name": "m2.b2_plus_1.bn20.2913100982973438/gamma", "shape": [128], "dtype": "float32"}, {"name": "m2.b2_plus_1.bn20.2913100982973438/beta", "shape": [128], "dtype": "float32"}, {"name": "m2.b2_plus_1.bn20.2913100982973438/moving_mean", "shape": [128], "dtype": "float32"}, {"name": "m2.b2_plus_1.bn20.2913100982973438/moving_variance", "shape": [128], "dtype": "float32"}, {"name": "m2.b2_plus_1.bn30.8479332425255713/gamma", "shape": [64], "dtype": "float32"}, {"name": "m2.b2_plus_1.bn30.8479332425255713/beta", "shape": [64], "dtype": "float32"}, {"name": "m2.b2_plus_1.bn30.8479332425255713/moving_mean", "shape": [64], "dtype": "float32"}, {"name": "m2.b2_plus_1.bn30.8479332425255713/moving_variance", "shape": [64], "dtype": "float32"}, {"name": "m2.b2_plus_1.conv10.1829177400316505/kernel", "shape": [3, 3, 256, 128], "dtype": "float32"}, {"name": "m2.b2_plus_1.conv20.5490275602943743/kernel", "shape": [3, 3, 128, 64], "dtype": "float32"}, {"name": "m2.b2_plus_1.conv30.498976044607914/kernel", "shape": [3, 3, 64, 64], "dtype": "float32"}, {"name": "m2.b3_1.bn10.321344222078187/gamma", "shape": [256], "dtype": "float32"}, {"name": "m2.b3_1.bn10.321344222078187/beta", "shape": [256], "dtype": "float32"}, {"name": "m2.b3_1.bn10.321344222078187/moving_mean", "shape": [256], "dtype": "float32"}, {"name": "m2.b3_1.bn10.321344222078187/moving_variance", "shape": [256], "dtype": "float32"}, {"name": "m2.b3_1.bn20.7758417066905281/gamma", "shape": [128], "dtype": "float32"}, {"name": "m2.b3_1.bn20.7758417066905281/beta", "shape": [128], "dtype": "float32"}, {"name": "m2.b3_1.bn20.7758417066905281/moving_mean", "shape": [128], "dtype": "float32"}, {"name": "m2.b3_1.bn20.7758417066905281/moving_variance", "shape": [128], "dtype": "float32"}, {"name": "m2.b3_1.bn30.8309259314860251/gamma", "shape": [64], "dtype": "float32"}, {"name": "m2.b3_1.bn30.8309259314860251/beta", "shape": [64], "dtype": "float32"}, {"name": "m2.b3_1.bn30.8309259314860251/moving_mean", "shape": [64], "dtype": "float32"}, {"name": "m2.b3_1.bn30.8309259314860251/moving_variance", "shape": [64], "dtype": "float32"}, {"name": "m2.b3_1.conv10.2670500072715589/kernel", "shape": [3, 3, 256, 128], "dtype": "float32"}, {"name": "m2.b3_1.conv20.9644777409981543/kernel", "shape": [3, 3, 128, 64], "dtype": "float32"}, {"name": "m2.b3_1.conv30.9519174188098702/kernel", "shape": [3, 3, 64, 64], "dtype": "float32"}, {"name": "m2.b3_2.bn10.2453925983518519/gamma", "shape": [256], "dtype": "float32"}, {"name": "m2.b3_2.bn10.2453925983518519/beta", "shape": [256], "dtype": "float32"}, {"name": "m2.b3_2.bn10.2453925983518519/moving_mean", "shape": [256], "dtype": "float32"}, {"name": "m2.b3_2.bn10.2453925983518519/moving_variance", "shape": [256], "dtype": "float32"}, {"name": "m2.b3_2.bn20.016247873224263132/gamma", "shape": [128], "dtype": "float32"}, {"name": "m2.b3_2.bn20.016247873224263132/beta", "shape": [128], "dtype": "float32"}, {"name": "m2.b3_2.bn20.016247873224263132/moving_mean", "shape": [128], "dtype": "float32"}, {"name": "m2.b3_2.bn20.016247873224263132/moving_variance", "shape": [128], "dtype": "float32"}, {"name": "m2.b3_2.bn30.7063834171885732/gamma", "shape": [64], "dtype": "float32"}, {"name": "m2.b3_2.bn30.7063834171885732/beta", "shape": [64], "dtype": "float32"}, {"name": "m2.b3_2.bn30.7063834171885732/moving_mean", "shape": [64], "dtype": "float32"}, {"name": "m2.b3_2.bn30.7063834171885732/moving_variance", "shape": [64], "dtype": "float32"}, {"name": "m2.b3_2.conv10.6017563350858279/kernel", "shape": [3, 3, 256, 128], "dtype": "float32"}, {"name": "m2.b3_2.conv20.4632043084241655/kernel", "shape": [3, 3, 128, 64], "dtype": "float32"}, {"name": "m2.b3_2.conv30.2078242995882893/kernel", "shape": [3, 3, 64, 64], "dtype": "float32"}, {"name": "m2.b3_3.bn10.7311270970713868/gamma", "shape": [256], "dtype": "float32"}, {"name": "m2.b3_3.bn10.7311270970713868/beta", "shape": [256], "dtype": "float32"}, {"name": "m2.b3_3.bn10.7311270970713868/moving_mean", "shape": [256], "dtype": "float32"}, {"name": "m2.b3_3.bn10.7311270970713868/moving_variance", "shape": [256], "dtype": "float32"}, {"name": "m2.b3_3.bn20.9872135175829668/gamma", "shape": [128], "dtype": "float32"}, {"name": "m2.b3_3.bn20.9872135175829668/beta", "shape": [128], "dtype": "float32"}, {"name": "m2.b3_3.bn20.9872135175829668/moving_mean", "shape": [128], "dtype": "float32"}, {"name": "m2.b3_3.bn20.9872135175829668/moving_variance", "shape": [128], "dtype": "float32"}, {"name": "m2.b3_3.bn30.22085593861366937/gamma", "shape": [64], "dtype": "float32"}, {"name": "m2.b3_3.bn30.22085593861366937/beta", "shape": [64], "dtype": "float32"}, {"name": "m2.b3_3.bn30.22085593861366937/moving_mean", "shape": [64], "dtype": "float32"}, {"name": "m2.b3_3.bn30.22085593861366937/moving_variance", "shape": [64], "dtype": "float32"}, {"name": "m2.b3_3.conv10.20531836639724677/kernel", "shape": [3, 3, 256, 128], "dtype": "float32"}, {"name": "m2.b3_3.conv20.6274138419336818/kernel", "shape": [3, 3, 128, 64], "dtype": "float32"}, {"name": "m2.b3_3.conv30.1761212205648165/kernel", "shape": [3, 3, 64, 64], "dtype": "float32"}, {"name": "m2.b3_4.bn10.5880856031234983/gamma", "shape": [256], "dtype": "float32"}, {"name": "m2.b3_4.bn10.5880856031234983/beta", "shape": [256], "dtype": "float32"}, {"name": "m2.b3_4.bn10.5880856031234983/moving_mean", "shape": [256], "dtype": "float32"}, {"name": "m2.b3_4.bn10.5880856031234983/moving_variance", "shape": [256], "dtype": "float32"}, {"name": "m2.b3_4.bn20.029412517831827967/gamma", "shape": [128], "dtype": "float32"}, {"name": "m2.b3_4.bn20.029412517831827967/beta", "shape": [128], "dtype": "float32"}, {"name": "m2.b3_4.bn20.029412517831827967/moving_mean", "shape": [128], "dtype": "float32"}, {"name": "m2.b3_4.bn20.029412517831827967/moving_variance", "shape": [128], "dtype": "float32"}, {"name": "m2.b3_4.bn30.9750356847559866/gamma", "shape": [64], "dtype": "float32"}, {"name": "m2.b3_4.bn30.9750356847559866/beta", "shape": [64], "dtype": "float32"}, {"name": "m2.b3_4.bn30.9750356847559866/moving_mean", "shape": [64], "dtype": "float32"}, {"name": "m2.b3_4.bn30.9750356847559866/moving_variance", "shape": [64], "dtype": "float32"}, {"name": "m2.b3_4.conv10.6073882671445668/kernel", "shape": [3, 3, 256, 128], "dtype": "float32"}, {"name": "m2.b3_4.conv20.16483593974391375/kernel", "shape": [3, 3, 128, 64], "dtype": "float32"}, {"name": "m2.b3_4.conv30.8155829984460058/kernel", "shape": [3, 3, 64, 64], "dtype": "float32"}, {"name": "m3.b1_1.bn10.3869039958038013/gamma", "shape": [256], "dtype": "float32"}, {"name": "m3.b1_1.bn10.3869039958038013/beta", "shape": [256], "dtype": "float32"}, {"name": "m3.b1_1.bn10.3869039958038013/moving_mean", "shape": [256], "dtype": "float32"}, {"name": "m3.b1_1.bn10.3869039958038013/moving_variance", "shape": [256], "dtype": "float32"}, {"name": "m3.b1_1.bn20.557719370784518/gamma", "shape": [128], "dtype": "float32"}, {"name": "m3.b1_1.bn20.557719370784518/beta", "shape": [128], "dtype": "float32"}, {"name": "m3.b1_1.bn20.557719370784518/moving_mean", "shape": [128], "dtype": "float32"}, {"name": "m3.b1_1.bn20.557719370784518/moving_variance", "shape": [128], "dtype": "float32"}, {"name": "m3.b1_1.bn30.751039437775965/gamma", "shape": [64], "dtype": "float32"}, {"name": "m3.b1_1.bn30.751039437775965/beta", "shape": [64], "dtype": "float32"}, {"name": "m3.b1_1.bn30.751039437775965/moving_mean", "shape": [64], "dtype": "float32"}, {"name": "m3.b1_1.bn30.751039437775965/moving_variance", "shape": [64], "dtype": "float32"}, {"name": "m3.b1_1.conv10.38390582931756767/kernel", "shape": [3, 3, 256, 128], "dtype": "float32"}, {"name": "m3.b1_1.conv20.38864834288487293/kernel", "shape": [3, 3, 128, 64], "dtype": "float32"}, {"name": "m3.b1_1.conv30.9706501527425536/kernel", "shape": [3, 3, 64, 64], "dtype": "float32"}, {"name": "m3.b1_2.bn10.9485821604924457/gamma", "shape": [256], "dtype": "float32"}, {"name": "m3.b1_2.bn10.9485821604924457/beta", "shape": [256], "dtype": "float32"}, {"name": "m3.b1_2.bn10.9485821604924457/moving_mean", "shape": [256], "dtype": "float32"}, {"name": "m3.b1_2.bn10.9485821604924457/moving_variance", "shape": [256], "dtype": "float32"}, {"name": "m3.b1_2.bn20.3378399441960347/gamma", "shape": [128], "dtype": "float32"}, {"name": "m3.b1_2.bn20.3378399441960347/beta", "shape": [128], "dtype": "float32"}, {"name": "m3.b1_2.bn20.3378399441960347/moving_mean", "shape": [128], "dtype": "float32"}, {"name": "m3.b1_2.bn20.3378399441960347/moving_variance", "shape": [128], "dtype": "float32"}, {"name": "m3.b1_2.bn30.7086747563996735/gamma", "shape": [64], "dtype": "float32"}, {"name": "m3.b1_2.bn30.7086747563996735/beta", "shape": [64], "dtype": "float32"}, {"name": "m3.b1_2.bn30.7086747563996735/moving_mean", "shape": [64], "dtype": "float32"}, {"name": "m3.b1_2.bn30.7086747563996735/moving_variance", "shape": [64], "dtype": "float32"}, {"name": "m3.b1_2.conv10.585111621290965/kernel", "shape": [3, 3, 256, 128], "dtype": "float32"}, {"name": "m3.b1_2.conv20.6722673120204056/kernel", "shape": [3, 3, 128, 64], "dtype": "float32"}, {"name": "m3.b1_2.conv30.07384202394640949/kernel", "shape": [3, 3, 64, 64], "dtype": "float32"}, {"name": "m3.b1_3.bn10.026595834420733877/gamma", "shape": [256], "dtype": "float32"}, {"name": "m3.b1_3.bn10.026595834420733877/beta", "shape": [256], "dtype": "float32"}, {"name": "m3.b1_3.bn10.026595834420733877/moving_mean", "shape": [256], "dtype": "float32"}, {"name": "m3.b1_3.bn10.026595834420733877/moving_variance", "shape": [256], "dtype": "float32"}, {"name": "m3.b1_3.bn20.997885410619158/gamma", "shape": [128], "dtype": "float32"}, {"name": "m3.b1_3.bn20.997885410619158/beta", "shape": [128], "dtype": "float32"}, {"name": "m3.b1_3.bn20.997885410619158/moving_mean", "shape": [128], "dtype": "float32"}, {"name": "m3.b1_3.bn20.997885410619158/moving_variance", "shape": [128], "dtype": "float32"}, {"name": "m3.b1_3.bn30.9254481315982255/gamma", "shape": [64], "dtype": "float32"}, {"name": "m3.b1_3.bn30.9254481315982255/beta", "shape": [64], "dtype": "float32"}, {"name": "m3.b1_3.bn30.9254481315982255/moving_mean", "shape": [64], "dtype": "float32"}, {"name": "m3.b1_3.bn30.9254481315982255/moving_variance", "shape": [64], "dtype": "float32"}, {"name": "m3.b1_3.conv10.806038409363594/kernel", "shape": [3, 3, 256, 128], "dtype": "float32"}, {"name": "m3.b1_3.conv20.13340229669674653/kernel", "shape": [3, 3, 128, 64], "dtype": "float32"}, {"name": "m3.b1_3.conv30.6192075317391738/kernel", "shape": [3, 3, 64, 64], "dtype": "float32"}, {"name": "m3.b1_4.bn10.6771923540780503/gamma", "shape": [256], "dtype": "float32"}, {"name": "m3.b1_4.bn10.6771923540780503/beta", "shape": [256], "dtype": "float32"}, {"name": "m3.b1_4.bn10.6771923540780503/moving_mean", "shape": [256], "dtype": "float32"}, {"name": "m3.b1_4.bn10.6771923540780503/moving_variance", "shape": [256], "dtype": "float32"}, {"name": "m3.b1_4.bn20.6510834884504954/gamma", "shape": [128], "dtype": "float32"}, {"name": "m3.b1_4.bn20.6510834884504954/beta", "shape": [128], "dtype": "float32"}, {"name": "m3.b1_4.bn20.6510834884504954/moving_mean", "shape": [128], "dtype": "float32"}, {"name": "m3.b1_4.bn20.6510834884504954/moving_variance", "shape": [128], "dtype": "float32"}, {"name": "m3.b1_4.bn30.4507114120510194/gamma", "shape": [64], "dtype": "float32"}, {"name": "m3.b1_4.bn30.4507114120510194/beta", "shape": [64], "dtype": "float32"}, {"name": "m3.b1_4.bn30.4507114120510194/moving_mean", "shape": [64], "dtype": "float32"}, {"name": "m3.b1_4.bn30.4507114120510194/moving_variance", "shape": [64], "dtype": "float32"}, {"name": "m3.b1_4.conv10.48324881779334905/kernel", "shape": [3, 3, 256, 128], "dtype": "float32"}, {"name": "m3.b1_4.conv20.16137381562557196/kernel", "shape": [3, 3, 128, 64], "dtype": "float32"}, {"name": "m3.b1_4.conv30.6845697161348142/kernel", "shape": [3, 3, 64, 64], "dtype": "float32"}, {"name": "m3.b2_1.bn10.6119028263252164/gamma", "shape": [256], "dtype": "float32"}, {"name": "m3.b2_1.bn10.6119028263252164/beta", "shape": [256], "dtype": "float32"}, {"name": "m3.b2_1.bn10.6119028263252164/moving_mean", "shape": [256], "dtype": "float32"}, {"name": "m3.b2_1.bn10.6119028263252164/moving_variance", "shape": [256], "dtype": "float32"}, {"name": "m3.b2_1.bn20.1252660527602225/gamma", "shape": [128], "dtype": "float32"}, {"name": "m3.b2_1.bn20.1252660527602225/beta", "shape": [128], "dtype": "float32"}, {"name": "m3.b2_1.bn20.1252660527602225/moving_mean", "shape": [128], "dtype": "float32"}, {"name": "m3.b2_1.bn20.1252660527602225/moving_variance", "shape": [128], "dtype": "float32"}, {"name": "m3.b2_1.bn30.2871328456186292/gamma", "shape": [64], "dtype": "float32"}, {"name": "m3.b2_1.bn30.2871328456186292/beta", "shape": [64], "dtype": "float32"}, {"name": "m3.b2_1.bn30.2871328456186292/moving_mean", "shape": [64], "dtype": "float32"}, {"name": "m3.b2_1.bn30.2871328456186292/moving_variance", "shape": [64], "dtype": "float32"}, {"name": "m3.b2_1.conv10.3921586005815776/kernel", "shape": [3, 3, 256, 128], "dtype": "float32"}, {"name": "m3.b2_1.conv20.00992581586688901/kernel", "shape": [3, 3, 128, 64], "dtype": "float32"}, {"name": "m3.b2_1.conv30.6461212950711416/kernel", "shape": [3, 3, 64, 64], "dtype": "float32"}, {"name": "m3.b2_2.bn10.06945419874611747/gamma", "shape": [256], "dtype": "float32"}, {"name": "m3.b2_2.bn10.06945419874611747/beta", "shape": [256], "dtype": "float32"}, {"name": "m3.b2_2.bn10.06945419874611747/moving_mean", "shape": [256], "dtype": "float32"}, {"name": "m3.b2_2.bn10.06945419874611747/moving_variance", "shape": [256], "dtype": "float32"}, {"name": "m3.b2_2.bn20.8728968118736126/gamma", "shape": [128], "dtype": "float32"}, {"name": "m3.b2_2.bn20.8728968118736126/beta", "shape": [128], "dtype": "float32"}, {"name": "m3.b2_2.bn20.8728968118736126/moving_mean", "shape": [128], "dtype": "float32"}, {"name": "m3.b2_2.bn20.8728968118736126/moving_variance", "shape": [128], "dtype": "float32"}, {"name": "m3.b2_2.bn30.11429637898255496/gamma", "shape": [64], "dtype": "float32"}, {"name": "m3.b2_2.bn30.11429637898255496/beta", "shape": [64], "dtype": "float32"}, {"name": "m3.b2_2.bn30.11429637898255496/moving_mean", "shape": [64], "dtype": "float32"}, {"name": "m3.b2_2.bn30.11429637898255496/moving_variance", "shape": [64], "dtype": "float32"}, {"name": "m3.b2_2.conv10.7978322462424972/kernel", "shape": [3, 3, 256, 128], "dtype": "float32"}, {"name": "m3.b2_2.conv20.7286175584350938/kernel", "shape": [3, 3, 128, 64], "dtype": "float32"}, {"name": "m3.b2_2.conv30.5738434701868776/kernel", "shape": [3, 3, 64, 64], "dtype": "float32"}, {"name": "m3.b2_3.bn10.2616782775318094/gamma", "shape": [256], "dtype": "float32"}, {"name": "m3.b2_3.bn10.2616782775318094/beta", "shape": [256], "dtype": "float32"}, {"name": "m3.b2_3.bn10.2616782775318094/moving_mean", "shape": [256], "dtype": "float32"}, {"name": "m3.b2_3.bn10.2616782775318094/moving_variance", "shape": [256], "dtype": "float32"}, {"name": "m3.b2_3.bn20.8811492664587554/gamma", "shape": [128], "dtype": "float32"}, {"name": "m3.b2_3.bn20.8811492664587554/beta", "shape": [128], "dtype": "float32"}, {"name": "m3.b2_3.bn20.8811492664587554/moving_mean", "shape": [128], "dtype": "float32"}, {"name": "m3.b2_3.bn20.8811492664587554/moving_variance", "shape": [128], "dtype": "float32"}, {"name": "m3.b2_3.bn30.8748349563499365/gamma", "shape": [64], "dtype": "float32"}, {"name": "m3.b2_3.bn30.8748349563499365/beta", "shape": [64], "dtype": "float32"}, {"name": "m3.b2_3.bn30.8748349563499365/moving_mean", "shape": [64], "dtype": "float32"}, {"name": "m3.b2_3.bn30.8748349563499365/moving_variance", "shape": [64], "dtype": "float32"}, {"name": "m3.b2_3.conv10.9361783832956486/kernel", "shape": [3, 3, 256, 128], "dtype": "float32"}, {"name": "m3.b2_3.conv20.9064090970512176/kernel", "shape": [3, 3, 128, 64], "dtype": "float32"}, {"name": "m3.b2_3.conv30.7564490440701334/kernel", "shape": [3, 3, 64, 64], "dtype": "float32"}, {"name": "m3.b2_4.bn10.30472972903995776/gamma", "shape": [256], "dtype": "float32"}, {"name": "m3.b2_4.bn10.30472972903995776/beta", "shape": [256], "dtype": "float32"}, {"name": "m3.b2_4.bn10.30472972903995776/moving_mean", "shape": [256], "dtype": "float32"}, {"name": "m3.b2_4.bn10.30472972903995776/moving_variance", "shape": [256], "dtype": "float32"}, {"name": "m3.b2_4.bn20.4143683092461994/gamma", "shape": [128], "dtype": "float32"}, {"name": "m3.b2_4.bn20.4143683092461994/beta", "shape": [128], "dtype": "float32"}, {"name": "m3.b2_4.bn20.4143683092461994/moving_mean", "shape": [128], "dtype": "float32"}, {"name": "m3.b2_4.bn20.4143683092461994/moving_variance", "shape": [128], "dtype": "float32"}, {"name": "m3.b2_4.bn30.0867584774619965/gamma", "shape": [64], "dtype": "float32"}, {"name": "m3.b2_4.bn30.0867584774619965/beta", "shape": [64], "dtype": "float32"}, {"name": "m3.b2_4.bn30.0867584774619965/moving_mean", "shape": [64], "dtype": "float32"}, {"name": "m3.b2_4.bn30.0867584774619965/moving_variance", "shape": [64], "dtype": "float32"}, {"name": "m3.b2_4.conv10.8593816278394786/kernel", "shape": [3, 3, 256, 128], "dtype": "float32"}, {"name": "m3.b2_4.conv20.5739986719550528/kernel", "shape": [3, 3, 128, 64], "dtype": "float32"}, {"name": "m3.b2_4.conv30.2087393185263443/kernel", "shape": [3, 3, 64, 64], "dtype": "float32"}, {"name": "m3.b2_plus_1.bn10.5418715494668237/gamma", "shape": [256], "dtype": "float32"}, {"name": "m3.b2_plus_1.bn10.5418715494668237/beta", "shape": [256], "dtype": "float32"}, {"name": "m3.b2_plus_1.bn10.5418715494668237/moving_mean", "shape": [256], "dtype": "float32"}, {"name": "m3.b2_plus_1.bn10.5418715494668237/moving_variance", "shape": [256], "dtype": "float32"}, {"name": "m3.b2_plus_1.bn20.9693841284647395/gamma", "shape": [128], "dtype": "float32"}, {"name": "m3.b2_plus_1.bn20.9693841284647395/beta", "shape": [128], "dtype": "float32"}, {"name": "m3.b2_plus_1.bn20.9693841284647395/moving_mean", "shape": [128], "dtype": "float32"}, {"name": "m3.b2_plus_1.bn20.9693841284647395/moving_variance", "shape": [128], "dtype": "float32"}, {"name": "m3.b2_plus_1.bn30.570541497302043/gamma", "shape": [64], "dtype": "float32"}, {"name": "m3.b2_plus_1.bn30.570541497302043/beta", "shape": [64], "dtype": "float32"}, {"name": "m3.b2_plus_1.bn30.570541497302043/moving_mean", "shape": [64], "dtype": "float32"}, {"name": "m3.b2_plus_1.bn30.570541497302043/moving_variance", "shape": [64], "dtype": "float32"}, {"name": "m3.b2_plus_1.conv10.29153103541880643/kernel", "shape": [3, 3, 256, 128], "dtype": "float32"}, {"name": "m3.b2_plus_1.conv20.6747243928011778/kernel", "shape": [3, 3, 128, 64], "dtype": "float32"}, {"name": "m3.b2_plus_1.conv30.9001579151092408/kernel", "shape": [3, 3, 64, 64], "dtype": "float32"}, {"name": "m3.b3_1.bn10.22641870881177284/gamma", "shape": [256], "dtype": "float32"}, {"name": "m3.b3_1.bn10.22641870881177284/beta", "shape": [256], "dtype": "float32"}, {"name": "m3.b3_1.bn10.22641870881177284/moving_mean", "shape": [256], "dtype": "float32"}, {"name": "m3.b3_1.bn10.22641870881177284/moving_variance", "shape": [256], "dtype": "float32"}, {"name": "m3.b3_1.bn20.9846724156546712/gamma", "shape": [128], "dtype": "float32"}, {"name": "m3.b3_1.bn20.9846724156546712/beta", "shape": [128], "dtype": "float32"}, {"name": "m3.b3_1.bn20.9846724156546712/moving_mean", "shape": [128], "dtype": "float32"}, {"name": "m3.b3_1.bn20.9846724156546712/moving_variance", "shape": [128], "dtype": "float32"}, {"name": "m3.b3_1.bn30.4296880065387465/gamma", "shape": [64], "dtype": "float32"}, {"name": "m3.b3_1.bn30.4296880065387465/beta", "shape": [64], "dtype": "float32"}, {"name": "m3.b3_1.bn30.4296880065387465/moving_mean", "shape": [64], "dtype": "float32"}, {"name": "m3.b3_1.bn30.4296880065387465/moving_variance", "shape": [64], "dtype": "float32"}, {"name": "m3.b3_1.conv10.7841762860123177/kernel", "shape": [3, 3, 256, 128], "dtype": "float32"}, {"name": "m3.b3_1.conv20.8025209671496969/kernel", "shape": [3, 3, 128, 64], "dtype": "float32"}, {"name": "m3.b3_1.conv30.6812058259922656/kernel", "shape": [3, 3, 64, 64], "dtype": "float32"}, {"name": "m3.b3_2.bn10.7899613814245258/gamma", "shape": [256], "dtype": "float32"}, {"name": "m3.b3_2.bn10.7899613814245258/beta", "shape": [256], "dtype": "float32"}, {"name": "m3.b3_2.bn10.7899613814245258/moving_mean", "shape": [256], "dtype": "float32"}, {"name": "m3.b3_2.bn10.7899613814245258/moving_variance", "shape": [256], "dtype": "float32"}, {"name": "m3.b3_2.bn20.818569435750143/gamma", "shape": [128], "dtype": "float32"}, {"name": "m3.b3_2.bn20.818569435750143/beta", "shape": [128], "dtype": "float32"}, {"name": "m3.b3_2.bn20.818569435750143/moving_mean", "shape": [128], "dtype": "float32"}, {"name": "m3.b3_2.bn20.818569435750143/moving_variance", "shape": [128], "dtype": "float32"}, {"name": "m3.b3_2.bn30.4266073511461984/gamma", "shape": [64], "dtype": "float32"}, {"name": "m3.b3_2.bn30.4266073511461984/beta", "shape": [64], "dtype": "float32"}, {"name": "m3.b3_2.bn30.4266073511461984/moving_mean", "shape": [64], "dtype": "float32"}, {"name": "m3.b3_2.bn30.4266073511461984/moving_variance", "shape": [64], "dtype": "float32"}, {"name": "m3.b3_2.conv10.7624097463627822/kernel", "shape": [3, 3, 256, 128], "dtype": "float32"}, {"name": "m3.b3_2.conv20.02893665462098527/kernel", "shape": [3, 3, 128, 64], "dtype": "float32"}, {"name": "m3.b3_2.conv30.6391721448949301/kernel", "shape": [3, 3, 64, 64], "dtype": "float32"}, {"name": "m3.b3_3.bn10.3539712925101416/gamma", "shape": [256], "dtype": "float32"}, {"name": "m3.b3_3.bn10.3539712925101416/beta", "shape": [256], "dtype": "float32"}, {"name": "m3.b3_3.bn10.3539712925101416/moving_mean", "shape": [256], "dtype": "float32"}, {"name": "m3.b3_3.bn10.3539712925101416/moving_variance", "shape": [256], "dtype": "float32"}, {"name": "m3.b3_3.bn20.46082016279915805/gamma", "shape": [128], "dtype": "float32"}, {"name": "m3.b3_3.bn20.46082016279915805/beta", "shape": [128], "dtype": "float32"}, {"name": "m3.b3_3.bn20.46082016279915805/moving_mean", "shape": [128], "dtype": "float32"}, {"name": "m3.b3_3.bn20.46082016279915805/moving_variance", "shape": [128], "dtype": "float32"}, {"name": "m3.b3_3.bn30.7778488041648924/gamma", "shape": [64], "dtype": "float32"}, {"name": "m3.b3_3.bn30.7778488041648924/beta", "shape": [64], "dtype": "float32"}, {"name": "m3.b3_3.bn30.7778488041648924/moving_mean", "shape": [64], "dtype": "float32"}, {"name": "m3.b3_3.bn30.7778488041648924/moving_variance", "shape": [64], "dtype": "float32"}, {"name": "m3.b3_3.conv10.517904128721141/kernel", "shape": [3, 3, 256, 128], "dtype": "float32"}, {"name": "m3.b3_3.conv20.9987539578213991/kernel", "shape": [3, 3, 128, 64], "dtype": "float32"}, {"name": "m3.b3_3.conv30.009884290839402676/kernel", "shape": [3, 3, 64, 64], "dtype": "float32"}, {"name": "m3.b3_4.bn10.17140476248962688/gamma", "shape": [256], "dtype": "float32"}, {"name": "m3.b3_4.bn10.17140476248962688/beta", "shape": [256], "dtype": "float32"}, {"name": "m3.b3_4.bn10.17140476248962688/moving_mean", "shape": [256], "dtype": "float32"}, {"name": "m3.b3_4.bn10.17140476248962688/moving_variance", "shape": [256], "dtype": "float32"}, {"name": "m3.b3_4.bn20.7814029874119268/gamma", "shape": [128], "dtype": "float32"}, {"name": "m3.b3_4.bn20.7814029874119268/beta", "shape": [128], "dtype": "float32"}, {"name": "m3.b3_4.bn20.7814029874119268/moving_mean", "shape": [128], "dtype": "float32"}, {"name": "m3.b3_4.bn20.7814029874119268/moving_variance", "shape": [128], "dtype": "float32"}, {"name": "m3.b3_4.bn30.3195466909992729/gamma", "shape": [64], "dtype": "float32"}, {"name": "m3.b3_4.bn30.3195466909992729/beta", "shape": [64], "dtype": "float32"}, {"name": "m3.b3_4.bn30.3195466909992729/moving_mean", "shape": [64], "dtype": "float32"}, {"name": "m3.b3_4.bn30.3195466909992729/moving_variance", "shape": [64], "dtype": "float32"}, {"name": "m3.b3_4.conv10.932648086531141/kernel", "shape": [3, 3, 256, 128], "dtype": "float32"}, {"name": "m3.b3_4.conv20.34885498102303036/kernel", "shape": [3, 3, 128, 64], "dtype": "float32"}, {"name": "m3.b3_4.conv30.710839034047784/kernel", "shape": [3, 3, 64, 64], "dtype": "float32"}, {"name": "top_m_0.bn10.23495565200767776/gamma", "shape": [256], "dtype": "float32"}, {"name": "top_m_0.bn10.23495565200767776/beta", "shape": [256], "dtype": "float32"}, {"name": "top_m_0.bn10.23495565200767776/moving_mean", "shape": [256], "dtype": "float32"}, {"name": "top_m_0.bn10.23495565200767776/moving_variance", "shape": [256], "dtype": "float32"}, {"name": "top_m_0.bn20.031218307995739436/gamma", "shape": [128], "dtype": "float32"}, {"name": "top_m_0.bn20.031218307995739436/beta", "shape": [128], "dtype": "float32"}, {"name": "top_m_0.bn20.031218307995739436/moving_mean", "shape": [128], "dtype": "float32"}, {"name": "top_m_0.bn20.031218307995739436/moving_variance", "shape": [128], "dtype": "float32"}, {"name": "top_m_0.bn30.6572252788207449/gamma", "shape": [64], "dtype": "float32"}, {"name": "top_m_0.bn30.6572252788207449/beta", "shape": [64], "dtype": "float32"}, {"name": "top_m_0.bn30.6572252788207449/moving_mean", "shape": [64], "dtype": "float32"}, {"name": "top_m_0.bn30.6572252788207449/moving_variance", "shape": [64], "dtype": "float32"}, {"name": "top_m_0.conv10.2943030405828715/kernel", "shape": [3, 3, 256, 128], "dtype": "float32"}, {"name": "top_m_0.conv20.30442385331909116/kernel", "shape": [3, 3, 128, 64], "dtype": "float32"}, {"name": "top_m_0.conv30.3887027228534773/kernel", "shape": [3, 3, 64, 64], "dtype": "float32"}, {"name": "top_m_1.bn10.11829123264559338/gamma", "shape": [256], "dtype": "float32"}, {"name": "top_m_1.bn10.11829123264559338/beta", "shape": [256], "dtype": "float32"}, {"name": "top_m_1.bn10.11829123264559338/moving_mean", "shape": [256], "dtype": "float32"}, {"name": "top_m_1.bn10.11829123264559338/moving_variance", "shape": [256], "dtype": "float32"}, {"name": "top_m_1.bn20.7132123237282112/gamma", "shape": [128], "dtype": "float32"}, {"name": "top_m_1.bn20.7132123237282112/beta", "shape": [128], "dtype": "float32"}, {"name": "top_m_1.bn20.7132123237282112/moving_mean", "shape": [128], "dtype": "float32"}, {"name": "top_m_1.bn20.7132123237282112/moving_variance", "shape": [128], "dtype": "float32"}, {"name": "top_m_1.bn30.8469698430848264/gamma", "shape": [64], "dtype": "float32"}, {"name": "top_m_1.bn30.8469698430848264/beta", "shape": [64], "dtype": "float32"}, {"name": "top_m_1.bn30.8469698430848264/moving_mean", "shape": [64], "dtype": "float32"}, {"name": "top_m_1.bn30.8469698430848264/moving_variance", "shape": [64], "dtype": "float32"}, {"name": "top_m_1.conv10.6761633499618509/kernel", "shape": [3, 3, 256, 128], "dtype": "float32"}, {"name": "top_m_1.conv20.12753794391263562/kernel", "shape": [3, 3, 128, 64], "dtype": "float32"}, {"name": "top_m_1.conv30.7888939234091303/kernel", "shape": [3, 3, 64, 64], "dtype": "float32"}, {"name": "top_m_2.bn10.7392143543849301/gamma", "shape": [256], "dtype": "float32"}, {"name": "top_m_2.bn10.7392143543849301/beta", "shape": [256], "dtype": "float32"}, {"name": "top_m_2.bn10.7392143543849301/moving_mean", "shape": [256], "dtype": "float32"}, {"name": "top_m_2.bn10.7392143543849301/moving_variance", "shape": [256], "dtype": "float32"}, {"name": "top_m_2.bn20.7004144018903073/gamma", "shape": [128], "dtype": "float32"}, {"name": "top_m_2.bn20.7004144018903073/beta", "shape": [128], "dtype": "float32"}, {"name": "top_m_2.bn20.7004144018903073/moving_mean", "shape": [128], "dtype": "float32"}, {"name": "top_m_2.bn20.7004144018903073/moving_variance", "shape": [128], "dtype": "float32"}, {"name": "top_m_2.bn30.15550987858646648/gamma", "shape": [64], "dtype": "float32"}, {"name": "top_m_2.bn30.15550987858646648/beta", "shape": [64], "dtype": "float32"}, {"name": "top_m_2.bn30.15550987858646648/moving_mean", "shape": [64], "dtype": "float32"}, {"name": "top_m_2.bn30.15550987858646648/moving_variance", "shape": [64], "dtype": "float32"}, {"name": "top_m_2.conv10.6533588871959396/kernel", "shape": [3, 3, 256, 128], "dtype": "float32"}, {"name": "top_m_2.conv20.09455615858108457/kernel", "shape": [3, 3, 128, 64], "dtype": "float32"}, {"name": "top_m_2.conv30.3845608577537205/kernel", "shape": [3, 3, 64, 64], "dtype": "float32"}, {"name": "top_m_3.bn10.9897071084035888/gamma", "shape": [256], "dtype": "float32"}, {"name": "top_m_3.bn10.9897071084035888/beta", "shape": [256], "dtype": "float32"}, {"name": "top_m_3.bn10.9897071084035888/moving_mean", "shape": [256], "dtype": "float32"}, {"name": "top_m_3.bn10.9897071084035888/moving_variance", "shape": [256], "dtype": "float32"}, {"name": "top_m_3.bn20.4901240984288341/gamma", "shape": [128], "dtype": "float32"}, {"name": "top_m_3.bn20.4901240984288341/beta", "shape": [128], "dtype": "float32"}, {"name": "top_m_3.bn20.4901240984288341/moving_mean", "shape": [128], "dtype": "float32"}, {"name": "top_m_3.bn20.4901240984288341/moving_variance", "shape": [128], "dtype": "float32"}, {"name": "top_m_3.bn30.877892757612087/gamma", "shape": [64], "dtype": "float32"}, {"name": "top_m_3.bn30.877892757612087/beta", "shape": [64], "dtype": "float32"}, {"name": "top_m_3.bn30.877892757612087/moving_mean", "shape": [64], "dtype": "float32"}, {"name": "top_m_3.bn30.877892757612087/moving_variance", "shape": [64], "dtype": "float32"}, {"name": "top_m_3.conv10.6039496358576244/kernel", "shape": [3, 3, 256, 128], "dtype": "float32"}, {"name": "top_m_3.conv20.7830722824182323/kernel", "shape": [3, 3, 128, 64], "dtype": "float32"}, {"name": "top_m_3.conv30.6761938338026505/kernel", "shape": [3, 3, 64, 64], "dtype": "float32"}]}]}